Experiments_FashionMNIST/LeNet1_single_tanh.pt (torch, 16727 bytes, 6 tensors)

weight f4 [4, 1, 5, 5]
0.09562287 0.22899073 0.43130445 0.10859096 -0.0054292097 0.14148845 0.49913493 0.38328922
0.09519181 -0.26792333 -0.09491601 0.30610424 0.30131453 -0.06788893 -0.17849945 -0.0043539326
0.18447287 -0.1928996 -0.17824326 -0.3727711 -0.18528597 -0.1468301 -0.37567717 -0.6590872
-0.4070467 0.6634456 0.6049506 0.19515456 0.34112754 0.09591651 0.25986168 0.24604361
-0.05861422 -0.036963694 0.06294147 0.22982317 -0.08625341 -0.17262024 0.011784573 -0.04663801
0.30169752 0.055574812 -0.08300662 0.012429567 -0.27013892 -0.010167075 -0.18243141 -0.17944394
-0.4342089 -0.4028772 -0.3418531 -0.8660527 -0.20747368 0.45099193 0.54305667 -0.27385908
-0.65781295 -0.30731395 0.6708035 0.48241585 -0.012691371 -0.56249577 -0.36530378 0.42582718
0.6140987 -0.03708071 -0.5755905 -0.66761374 0.6111782 0.550421 0.086621664 -0.7198386
-0.74808556 0.1099427 0.8188208 -2.8469322 -3.9333282 -2.2240336 -0.7200069 -0.29702067
-1.3420188 -4.12102 -2.246287 -0.50467235 -0.034674853 0.5208455 -0.3020972 0.6378265
0.13183546 0.21485092 0.58352005 -0.4256129 0.6263204 0.5510627 0.5771076 0.054075167
-0.65452945 -0.1410127 0.014366409 0.49118778
00000000: ecd5 c33d 8c7c 6a3e f0d3 dc3e f064 de3d
00000010: 83e7 b1bb 59e2 103e 9d8e ff3e 7c3e c43e
00000020: ecf3 c23d 3f2d 89be 5363 c2bd b2b9 9c3e
00000030: e645 9a3e 5a09 8bbd 8fc8 36be 6fab 8ebb
00000040: 75e6 3c3e 7987 45be 6785 36be dbdb bebe
00000050: 9bbb 3dbe a15a 16be c258 c0be f0b9 28bf
00000060: 6d68 d0be 92d7 293f 0bde 1a3f 99d6 473e
00000070: 45a8 ae3e e06f c43d 970c 853e dbf2 7b3e
00000080: 7715 70bd 3e67 17bd 75e7 803d c456 6b3e
00000090: a1a5 b0bd 5cc3 30be 1514 413c 7f07 3fbd
000000a0: 1978 9a3e 6aa2 633d 60ff a9bd 62a5 4b3c
000000b0: a64f 8abe ce93 26bc 4dcf 3abe 27c0 37be
000000c0: a150 debe ec45 cebe 5f07 afbe a1b5 5dbf
000000d0: fb73 54be 6ae8 e63e c305 0b3f 4237 8cbe
000000e0: 6e66 28bf 4158 9dbe c7b9 2b3f 36ff f63e
000000f0: 78ef 4fbc b9ff 0fbf 1909 bbbe 0506 da3e
00000100: 9335 1d3f f1e1 17bd e659 13bf bce8 2abf
00000110: 2d76 1c3f 64e8 0c3f b366 b13d 5847 38bf
00000120: 8982 3fbf a329 e13d 3d9e 513f 2334 36c0
00000130: a6bb 7bc0 9156 0ec0 5f52 38bf 1813 98be
00000140: 46c7 abbf 65df 83c0 2bc3 0fc0 3532 01bf
00000150: 3807 0ebd 2156 053f 7cac 9abe 9948 233f
00000160: e0ff 063e e101 5c3e 9261 153f efe9 d9be
00000170: 8956 203f 7212 0d3f 53bd 133f ec7d 5d3d
00000180: 3e8f 27bf a265 10be 1661 6b3c f77c fb3e

bias f4 [4]
-0.42445073 -0.21450117 -0.23591703 0.21682058
00000000: 9b51 d9be 32a6 5bbe 3c94 71be 3706 5e3e

weight f4 [12, 4, 5, 5]
0.22029082 0.04005888 0.06667178 0.17690365 -0.15745692 -0.042780295 0.06312162 -0.018804109
-0.32955968 -0.3236043 0.2527498 0.14247964 0.12586775 -0.23634103 -0.033235386 0.33312628
-0.042264275 0.2850083 -0.22979337 -0.034988698 0.20833421 -0.14918122 0.36297494 -0.109459974
-0.3091187 0.016680723 0.18924323 0.107521385 0.47078398 0.5058665 -0.37470907 -0.2606662
-0.13575394 -0.40396932 -0.03221678 -0.057634193 0.019386586 0.16417958 -0.082132265 0.198427
-0.08477906 -0.017328119 0.06351595 -0.2165143 -0.016971659 0.14114976 -0.14390133 0.038135882
-0.04698476 -0.21484277 -0.5978631 -0.47622675 -0.36871502 -0.2641712 0.17703073 -0.13332345
0.0059293094 -0.04147293 -0.22371677 0.014176713 -0.13615207 0.22822858 0.06489078 -0.2913266
-0.033354085 -0.13484882 0.455903 0.23837823 -0.13207278 0.0690862 -0.016071 0.4402117
-0.028192857 -0.3062814 0.13464417 -0.11617015 0.1305789 0.009165237 -0.33500358 -0.24414097
0.13994622 0.3449129 -0.21390411 -0.23316503 0.11226524 -0.08413854 0.034533445 -0.3098418
-0.23239687 0.017847955 -0.100718476 0.16493559 -0.22978644 -0.04919776 0.19206381 0.28222367
0.21130471 -0.14781944 0.09009436 0.17347446 0.15696555 0.22731636 -0.23668623 -0.079321675
0.066824816 0.16644245 0.20100988 -0.16998273 -0.14252312 0.120644376 0.057239648 0.283396
0.23500098 0.21530677 -0.10189934 -0.022472594 0.11273162 -0.10621711 0.0013409862 -0.30845246
-0.07211027 0.3783757 0.15684347 0.16013554 0.18023703 -0.19529031 0.18538736 -0.041207377
-0.36153716 0.025669761 -0.34980056 0.045361426 -0.013605264 -0.6271041 -0.27298793 -0.19309613
0.10536122 0.42785546 0.032077838 -0.26745602 -0.3880528 0.00996169 0.22095376 -0.0985846
-0.43370587 -0.039262235 0.30328062 0.47508836 0.29422602 0.08257134 0.1256069 -0.22986996
0.48863667 0.22282763 -0.6067536 0.2903145 -0.08198457 0.09564927 0.31196502 -0.11087343
0.080881424 -0.053608954 0.025158128 -0.1372459 -0.122015744 0.2740521 -0.08805328 0.19400607
-0.028559558 -0.13468164 0.02772276 -0.025047734 0.5612344 0.20890334 -0.2746088 0.061199047
-0.4447497 -0.5078652 -0.47045252 0.005623404 -0.6010369 -0.1194034 0.45911673 0.2784418
0.15032242 -0.09060184 -0.08329056 -0.05573181 -0.30312738 -0.033600237 -0.13931112 -0.112956285
-0.015976092 -0.32273167 -0.14437538 0.016248468 0.13585359 0.20247404 -0.12727833 0.19214036
-0.20434274 -0.07134299 -0.021157907 -0.03481906 -0.24347773 -0.19151461 -0.13802733 -0.24644949
-0.13305464 -0.06256658 -0.23489581 -0.057654206 -0.186559 -0.07107835 -0.03578714 -0.043447714
0.22864574 0.08658934 0.3453139 0.1412847 0.2520213 0.09999989 -0.30615053 -0.17630015
-0.40181038 -0.118421 -0.18963163 0.05437583 0.13137476 0.07765586 -0.053429022 -0.12211575
-0.25918123 -0.18682855 0.17834711 0.14692493 0.1958891 0.12647523 -0.21273898 0.071616545
0.19880627 0.22756189 0.23505497 -0.05047996 0.033393033 0.3461344 0.2895318 -0.43628874
-0.43787163 -0.50524 0.17840932 -0.15078501 -0.22891794 -0.13068084 -0.30171585 0.081102155
00000000: eb93 613e c814 243d 378b 883d 3b26 353e
00000010: 633c 21be 643a 2fbd e845 813d 130b 9abc
00000020: 0cbc a8be 76af a5be 6c68 813e 2fe6 113e
00000030: 7ae3 003e 6203 72be d421 08bd 878f aa3e
00000040: 4e1d 2dbd 9cec 913e f44e 6bbe 4f50 0fbd
00000050: 9055 553e f6c2 18be dad7 b93e 8d2c e0bd
00000060: ce44 9ebe 03a6 883c fac8 413e 2c34 dc3d
00000070: 990a f13e 7880 013f ded9 bfbe 0a76 85be
00000080: 1503 0bbe 11d5 cebe bef5 03bd d511 6cbd
00000090: 9ed0 9e3c b11e 283e f634 a8bd 7330 4b3e
000000a0: a5a0 adbd b3f3 8dbc a714 823d edb5 5dbe
000000b0: 2608 8bbc 9089 103e df5a 13be 5f34 1c3d
000000c0: 1773 40bd beff 5bbe 8e0d 19bf fed3 f3be
000000d0: 37c8 bcbe 7341 87be 8b47 353e f185 08be
000000e0: a74a c23b 85df 29bd 0216 65be 7245 683c
000000f0: 736b 0bbe c1b4 693e 75e5 843d c328 95be
00000100: 4b9e 08bd cf15 0abe 1e6c e93e 6c19 743e
00000110: 163e 07be 117d 8d3d 54a7 83bc 6e63 e13e
00000120: b5f4 e6bc ead0 9cbe 29e0 093e 9eea edbd
00000130: 7ab6 053e ca29 163c 9785 abbe 1700 7abe
00000140: 104e 0f3e 6c98 b03e ae09 5bbe d0c2 6ebe
00000150: 51eb e53d d450 acbd f172 0d3d 96a3 9ebe
00000160: 72f9 6dbe e035 923c 7d45 cebd e0e4 283e
00000170: 234d 6bbe 9783 49bd 60ac 443e 9f7f 903e
00000180: 4360 583e fb5d 17be 6483 b83d 4aa3 313e
00000190: 94bb 203e 9fc5 683e e05d 72be 6773 a2bd
000001a0: 73db 883d e46f 2a3e 89d5 4d3e f40f 2ebe
000001b0: 95f1 11be 6614 f73d 1f74 6a3d 4819 913e
000001c0: 19a4 703e 6179 5c3e 9ab0 d0bd 7218 b8bc
000001d0: d6df e63d 5b88 d9bd 08c4 af3a 7bed 9dbe
000001e0: 8dae 93bd 76ba c13e 939b 203e 92fa 233e
000001f0: 0e90 383e 2ffa 47be 2fd6 3d3e 11c9 28bd
00000200: 661b b9be 6449 d23c 0f19 b3be e7cc 393d
00000210: 9de8 5ebc e589 20bf 13c5 8bbe feba 45be
00000220: a0c7 d73d df0f db3e 0d64 033d ffef 88be
00000230: dbae c6be 5b36 233c b441 623e b9e6 c9bd
00000240: b20e debe 70d1 20bd 9947 9b3e c83e f33e
00000250: cba4 963e 2a1b a93d 189f 003e 0863 6bbe
00000260: 962e fa3e ed2c 643e 3454 1bbf 1aa4 943e
00000270: 87e7 a7bd c4e3 c33d e1b9 9f3e 9c11 e3bd
00000280: 29a5 a53d 1095 5bbd 6b18 ce3c 308a 0cbe
00000290: 64e3 f9bd 8f50 8c3e 4755 b4bd 87a9 463e
000002a0: bcf5 e9bc fce9 09be d71a e33c e830 cdbc
000002b0: 0fad 0f3f c2ea 553e 8699 8cbe daab 7a3d
000002c0: 3cb6 e3be 7403 02bf 27df f0be 8844 b83b
000002d0: 8edd 19bf c589 f4bd 5911 eb3e ec8f 8e3e
000002e0: 1fee 193e 758d b9bd 3e94 aabd 0a47 64bd
000002f0: 8333 9bbe 67a0 09bd 93a7 0ebe a055 e7bd
00000300: 4be0 82bc 163d a5be 24d7 13be 821b 853c
00000310: 341d 0b3e 5b55 4f3e 4055 02be 71c0 443e
00000320: 393f 51be 461c 92bd 5953 adbc 6e9e 0ebd
00000330: 3a52 79be 681c 44be 0957 0dbe 415d 7cbe
00000340: 7a3f 08be e822 80bd 8788 70be d126 6cbd
00000350: 5309 3fbe 8791 91bd 8995 12bd 3bf6 31bd
00000360: 1c22 6a3e c055 b13d fccc b03e f0ac 103e
00000370: f008 813e becc cc3d c3bf 9cbe 0788 34be
00000380: 17ba cdbe b686 f2bd cb2e 42be 31b9 5e3d
00000390: 1b87 063e 090a 9f3d 64d8 5abd d317 fabd
000003a0: 67b3 84be fc4f 3fbe a0a0 363e 7d73 163e
000003b0: 2797 483e b982 013e 3fd8 59be b2ab 923d
000003c0: df93 4b3e fc05 693e 40b2 703e 13c4 4ebd
000003d0: 22c7 083d 8738 b13e 833d 943e 3d61 dfbe
000003e0: b630 e0be 6957 01bf efb0 363e 6367 1abe
000003f0: 7769 6abe 33d1 05be 807a 9abe e318 a63d

bias f4 [12]
-0.4847174 -0.3080753 0.13896134 -0.55092686 0.18338723 0.31858706 -0.0067431414 -0.30518717
-0.0055972384 -0.34991926 -0.024544278 -0.2034223
00000000: e12c f8be 0cbc 9dbe e24b 0e3e 8b09 0dbf
00000010: ddc9 3b3e d81d a33e 92f5 dcbb 7e41 9cbe
00000020: 0a69 b7bb 9e28 b3be 1511 c9bc ef4d 50be

weight f4 [10, 192]
-0.18662767 -0.12498133 0.060766682 0.019662105 -0.06008973 0.02387801 0.11491495 -0.086665444
-0.004694199 0.17480117 0.07975802 -0.14570275 0.35092956 -0.19660762 -0.10162911 0.2409722
0.18174711 0.08634345 -0.06880924 0.1685798 0.06147202 0.2260897 0.13944334 0.14453033
0.12913606 0.02803115 -0.0026584372 -0.01952686 -0.20489827 -0.034788802 -0.30627617 -0.14850965
-0.099137105 -0.110832065 0.033336993 -0.12294691 -0.20220709 -0.18390763 -0.14110054 -0.13347702
0.24090631 -0.1613236 -0.071226045 -0.055337317 0.2902408 0.1791557 0.14389597 -0.021968124
-0.04587311 -0.18842593 0.03594263 0.19054393 0.042805336 -0.10083118 0.018128444 -0.02013445
0.06862089 -0.009578061 0.056827996 -0.13760276 0.06236706 0.039477624 0.06643541 -0.15342392
0.13899076 -0.07635732 0.011657661 -0.0739943 -0.09493551 -0.13071325 0.047058497 -0.18041098
0.042699415 -0.13395506 0.18947011 0.16458468 -0.0341498 0.020165678 0.0057623037 -0.017242162
0.08654829 0.12522511 -0.1029807 -0.2381059 0.044637818 0.041082032 -0.20227283 0.1371048
-0.18897662 0.2796711 0.04607954 0.06367108 -0.28793555 0.24289672 0.08885036 0.22600424
0.13555674 0.013564822 -0.01264339 0.045508064 0.14697757 -0.09123696 -0.06695093 -0.07798592
0.033580486 -0.10739789 0.07303417 -0.08223515 0.13184279 0.05230935 0.22511654 0.15667419
-0.07623525 -0.016740581 0.12187369 0.5662835 -0.25730112 -0.12915805 0.050620932 0.04767302
0.28066477 -0.070439175 0.0010064668 -0.0019455812 -0.091984764 -0.055623144 -0.033018127 -0.3696983
0.02412167 -0.4336569 -0.09181553 0.14461511 0.10602582 0.00088797096 0.082045965 -0.12547535
0.028551307 -0.061202273 -0.012056034 -0.16582945 0.21099994 -0.049389124 0.032893382 -0.15880743
0.3079031 0.26075786 0.07454292 0.010986864 0.15588075 -0.06197475 0.02830202 0.09990381
-0.100197256 -0.17244665 -0.055209305 -0.04390178 -0.2587 0.119269535 0.1325747 -0.24870974
0.026697904 0.121685624 0.01596154 -0.1013895 0.03695709 0.1855283 -0.010995999 -0.061328642
-0.0038800798 -0.003282922 -0.0005711557 0.15422274 -0.07605474 0.02149811 0.15278532 0.054438233
0.061232135 -0.0793272 -0.0213755 0.31888676 -0.008115507 -0.046583068 0.29528576 0.15612493
0.031186404 -0.20120716 0.11454421 -0.053023 -0.10040974 -0.20098203 -0.25358513 -0.3442793
0.06666759 0.049275316 0.55545044 0.25904062 0.14887339 -0.276559 0.22908051 0.15073675
0.016960816 0.2876201 0.21624477 -0.22286089 0.12678298 0.43841898 0.038873497 -0.5907687
0.29701924 -0.008879189 -0.19536187 0.09490432 -0.043498762 0.17376687 0.1403739 -0.062884405
-0.23360704 -0.018414173 0.37591398 -0.2208341 -0.45764297 -0.41999 0.1857331 -0.25471154
0.22949266 0.08553364 -0.06771038 0.020351462 0.033741307 -0.28035048 -0.15231417 -0.07837211
0.034678847 -0.15048274 -0.08105531 0.040888455 0.0674857 -0.11508597 -0.13403788 0.19701351
0.21513462 -0.002209713 0.12880206 -0.08118936 0.11463014 -0.064910054 -0.011678305 -0.0016437116
-0.28171808 -0.10020756 0.089753404 0.016477777 -0.19005086 -0.13190812 0.22251631 -0.0064760298
00000000: 531b 3fbe 36f6 ffbd 7ce6 783d 6c12 a13c
00000010: a620 76bd d19b c33c 8858 eb3d a77d b1bd
00000020: ccd1 99bb 14ff 323e 2c58 a33d 1a33 15be
00000030: 0aad b33e 8253 49be ec22 d0bd 6bc1 763e
00000040: ea1b 3a3e d6d4 b03d dceb 8cbd 2fa0 2c3e
00000050: 16ca 7b3d 0f84 673e 3cca 0e3e c2ff 133e
00000060: 3e3c 043e 95a1 e53c 2d39 2ebb cbf6 9fbc
00000070: dad0 51be b47e 0ebd 3bd0 9cbe ea12 18be
00000080: 6508 cbbd ecfb e2bd 5f8c 083d 97cb fbbd
00000090: 600f 4fbe 4852 3cbe a97c 10be 33ae 08be
000000a0: 25b0 763e 0432 25be f6de 91bd 62a9 62bd
000000b0: 719a 943e 9874 373e 7759 133e 7ff6 b3bc
000000c0: 71e5 3bbd baf2 40be 9438 133d f31d 433e
000000d0: a654 2f3d 9480 cebd 1a82 943c 01f1 a4bc
000000e0: 1c89 8c3d 4ded 1cbc 79c4 683d bde7 0cbe
000000f0: 9a74 7f3d 4ab3 213d 4a0f 883d 291b 1dbe
00000100: 9853 0e3e 3a61 9cbd c6ff 3e3c 538a 97bd
00000110: 8c6d c2bd b2d9 05be 69c0 403d a8bd 38be
00000120: 95e5 2e3d 842b 09be 7404 423e e388 283e
00000130: a9e0 0bbd 7e32 a53c b5d1 bc3b 6f3f 8dbc
00000140: 3b40 b13d 033b 003e 8ce7 d2bd 08d2 73be
00000150: 25d6 363d a245 283d 9c20 4fbe 3365 0c3e
00000160: 1683 41be 0d31 8f3e e6bd 3c3d fc65 823d
00000170: 4a6c 93be ebb9 783e 2df7 b53d a86d 673e
00000180: 63cf 0a3e fd3e 5e3c 3926 4fbc aa66 3a3d
00000190: 4a81 163e 71da babd 921d 89bd 15b7 9fbd
000001a0: b18b 093d 6df3 dbbd f092 953d e76a a8bd
000001b0: cc01 073e 5442 563d f384 663e 336f 203e
000001c0: 3a21 9cbd 8b23 89bc ea98 f93d f5f7 103f
000001d0: f9bc 83be 0242 04be e557 4f3d c944 433d
000001e0: 4bb3 8f3e 6a42 90bd 6ceb 833a df02 ffba
000001f0: 8262 bcbd 18d5 63bd 043e 07bd 1849 bdbe
00000200: cf9a c53c 4708 debe c809 bcbd fc15 143e
00000210: 1124 d93d b9c6 683a b707 a83d 9c7c 00be
00000220: 6ee4 e93c 3caf 7abd ac86 45bc 32cf 29be
00000230: 5e10 583e 404c 4abd 36bb 063d 6a9e 22be
00000240: 7aa5 9d3e 0e82 853e f5a9 983d 3f02 343c
00000250: 349f 1f3e 3cd9 7dbd a3d9 e73c 5e9a cc3d
00000260: 3834 cdbd db95 30be 2723 62bd 5ad2 33bd
00000270: 5474 84be 9643 f43d aac1 073e c4ad 7ebe
00000280: 90b5 da3c 5036 f93d c7c1 823c 4ca5 cfbd
00000290: 5160 173d 21fb 3d3e 9028 34bc be33 7bbd
000002a0: f048 7ebb 4b26 57bb 9cb9 15ba 91ec 1d3e
000002b0: 96c2 9bbd ce1c b03c c173 1c3e a0fa 5e3d
000002c0: 8cce 7a3d 4d76 a2bd ac1b afbc 2045 a33e
000002d0: e7f6 04bc e3cd 3ebd b22f 973e 37df 1f3e
000002e0: a17a ff3c 4009 4ebe 2896 ea3d a52e 59bd
000002f0: 9fa3 cdbd 3cce 4dbe e9d5 81be 6045 b0be
00000300: 0489 883d ead4 493d 0032 0e3f f9a0 843e
00000310: 4472 183e 2499 8dbe 1594 6a3e bc5a 1a3e
00000320: 69f1 8a3c f142 933e 456f 5d3e a535 64be
00000330: 66d3 013e 7478 e03e d139 1f3d 9e3c 17bf
00000340: e812 983e 057a 11bc f10c 48be 325d c23d
00000350: c22b 32bd f1ef 313e 2dbe 0f3e 8ac9 80bd
00000360: af36 6fbe 52d9 96bc cc77 c03e 5622 62be
00000370: 2e50 eabe ee08 d7be d130 3e3e 8d69 82be
00000380: 2000 6b3e 432c af3d bdab 8abd 1cb8 a63c
00000390: 5334 0a3d 198a 8fbe 3ff8 1bbe 8f81 a0bd
000003a0: 680b 0e3d 2618 1abe 5400 a6bd a77a 273d
000003b0: f135 8a3d 31b2 ebbd 3a41 09be e9bd 493e
000003c0: 404c 5c3e d5d0 10bb b0e4 033e 9b46 a6bd
000003d0: 35c3 ea3d 90ef 84bd 5d56 3fbc cf71 d7ba
000003e0: 5a3d 90be 9f39 cdbd a2d0 b73d 67fc 863c
000003f0: b19c 42be ec12 07be 51db 633e e034 d4bb

bias f4 [10]
0.18563135 -0.06203904 0.05316662 -0.29594827 -0.2706504 0.28811342 0.141342 -0.13582928
0.01607937 -0.19107771
00000000: 2516 3e3e a61c 7ebd 3ec5 593d 8886 97be
00000010: b092 8abe 9a83 933e f5bb 103e d516 0bbe
00000020: e2b8 833c e0a9 43be
