Experiments_FashionMNIST/LeNet1.pt (torch, 16791 bytes, 6 tensors)

weight f4 [4, 1, 5, 5]
-0.7523673 -0.642404 -0.1933562 0.11506152 0.37969685 -0.18961899 -0.12042111 -0.3629114
-0.012509186 0.1869593 0.06994381 0.0023613547 0.06414294 0.13035643 0.39335793 -0.27284843
-0.12871438 -0.12321291 0.42066482 0.27460498 -0.23229963 -0.3833986 0.10571612 0.42072788
0.32905683 -0.6235194 -0.8672686 0.26101738 0.5533901 0.16795392 -0.28964224 -0.907324
0.3277508 0.46058258 0.16682005 -0.13972466 -0.5971753 0.19191615 0.43358317 0.27615094
-0.19798873 -1.0195801 0.36171332 0.6451478 0.050669923 -0.5922755 -1.0837662 0.08182173
0.5790234 0.2941592 -1.239257 -3.1887312 -3.3664384 -1.6093345 -0.51296103 -1.048772
-4.080216 -3.8674166 -1.4402351 -0.32069662 0.11257533 -0.37859687 -1.0387541 0.18649806
-0.07239263 0.6255858 0.10545446 0.29746428 0.7456765 0.31377837 0.33562943 -0.27962497
0.082094856 0.40915453 0.28207862 0.016246893 0.10582011 -0.24207973 -0.16093189 -0.3111999
0.056189064 -0.20565595 -0.3622879 -0.19279945 -0.15801618 -0.17576635 -0.113102645 -0.09939149
0.24947223 0.055294678 -0.262473 -0.15647464 0.22586134 0.909751 0.7297507 0.05577762
-0.09715063 0.5481785 1.4196421 1.5261457
00000000: 259b 40bf 9774 24bf 2bff 45be 60a5 eb3d
00000010: a067 c23e 7b2b 42be 589f f6bd 86cf b9be
00000020: 54f3 4cbc 4272 3f3e b33e 8f3d f5c0 1a3b
00000030: 605d 833d 287c 053e 3666 c93e cab2 8bbe
00000040: b4cd 03be 0d57 fcbd 6161 d73e 0699 8c3e
00000050: f4df 6dbe d24c c4be b181 d83d a569 d73e
00000060: 237a a83e f89e 1fbf 5105 5ebf 12a4 853e
00000070: f9aa 0d3f 1dfc 2b3e fd4b 94be 6346 68bf
00000080: f4ce a73e 7bd1 eb3e e0d2 2a3e fb13 0fbe
00000090: 7be0 18bf ab85 443e 9dfe dd3e a863 8d3e
000000a0: 8fbd 4abe 9a81 82bf 7d32 b93e 6828 253f
000000b0: 448b 4f3d 5e9f 17bf dab8 8abf 2792 a73d
000000c0: e13a 143f 099c 963e f99f 9ebf 2c14 4cc0
000000d0: ba73 57c0 acfe cdbf 6a51 03bf 293e 86bf
000000e0: 2191 82c0 c183 77c0 a059 b8bf 5932 a4be
000000f0: e58d e63d 73d7 c1be e5f5 84bf 59f9 3e3e
00000100: 9642 94bd 6426 203f 82f8 d73d 3d4d 983e
00000110: a8e4 3e3f 8fa7 a03e 9fd7 ab3e 012b 8fbe
00000120: 5921 a83d b47c d13e 9c6c 903e 3418 853c
00000130: 37b8 d83d c0e3 77be 54cb 24be 9855 9fbe
00000140: 8126 663d 7997 52be cd7d b9be 386d 45be
00000150: fece 21be 18fc 33be 5ca2 e7bd c48d cbbd
00000160: a675 7f3e ac7c 623d dc62 86be e33a 20be
00000170: 3248 673e 71e5 683f f1d0 3a3f 1377 643d
00000180: e9f6 c6bd 6d55 0c3f d5b6 b53f be58 c33f

bias f4 [4]
0.21913067 -0.09015651 0.36500043 -0.27499676
00000000: ca63 603e faa3 b8bd 56e1 ba3e 60cc 8cbe

weight f4 [12, 4, 5, 5]
-0.27510288 -0.10700495 -0.012893298 0.42218933 0.1627083 -0.5673045 -0.30598328 0.072008386
0.14249843 -0.108078495 -0.4803306 -0.1324755 0.19622539 0.1852736 -0.042875875 -0.2988168
0.16492735 0.17372142 -0.05857491 -0.359533 -0.54166627 0.45494115 0.1554517 -0.1430666
-0.40868777 -0.54864097 -0.6068403 -0.22600657 0.20396721 -0.1558862 -0.7771181 -0.42941612
-0.12651873 -0.17657027 -0.17598604 -0.76281595 -0.1637891 -0.15614147 -0.21335888 -0.083047315
-0.69480455 -0.0756005 -0.34949833 -0.4033027 -0.059631713 -0.78349996 0.39818376 -0.24258618
-0.5793472 0.07502932 -1.2226408 -0.14225304 0.14634624 -0.20021705 -0.12795572 -0.9405438
0.07597586 0.18393135 -0.18422112 -0.22654489 -0.47291544 0.18136905 0.15398826 -0.15813482
-0.067887984 -0.30836353 0.22320658 -0.005046086 -0.08405046 -0.17062132 -0.3915086 0.16274212
-0.22332104 -0.119316064 -0.18847182 -0.010511422 -0.11989412 0.14287531 0.16286309 0.19335458
-0.2026682 -0.23155797 0.10415796 0.089809045 0.0769797 -0.36390305 -0.12427609 0.17482436
0.06299195 -0.09469119 -0.2033462 0.15713932 0.11650789 -0.05754892 -0.2501564 -0.5191047
0.30970147 0.06755551 0.21375898 -0.1361488 -0.058480617 -0.28034163 0.24361716 0.3881195
0.206958 0.19721414 0.05365144 0.7651447 0.60602075 0.11666031 0.22507985 0.20566982
0.71761197 0.19961447 -0.050791293 0.19916345 0.56265664 0.85973334 0.0066344263 -0.093059346
0.11361133 0.57231635 0.27129325 0.0553909 0.19462477 0.24684483 0.1756147 0.2457385
0.097702615 -0.17381278 0.6580835 0.63024807 0.6354943 0.22100712 -0.08595237 0.41400754
0.22077817 0.3287328 0.061414 0.14081904 0.42704 0.59893185 0.2614278 -0.21651652
0.07579446 -0.039953988 0.6144384 0.25136164 -0.018774658 0.17122248 -0.21852021 0.15865967
0.026949497 0.09466215 0.07530039 0.3319901 0.10166258 -0.0049885036 -0.10067744 -0.024162544
0.05051516 0.08207685 0.075110346 -0.015209582 -0.33300674 0.11818845 0.1516315 0.1438079
0.019672098 -0.065804206 0.21914911 0.14958015 0.124108866 -0.09387252 0.0039111148 -0.24247211
-0.060040556 0.14974661 0.19246848 0.15239732 -0.16917053 -0.3550301 -0.06748237 0.14279112
0.4388891 -0.02524514 -0.24828392 0.12838218 0.0695788 0.21293283 -0.13530473 -0.07837824
0.12977853 0.08509428 -0.0005004465 -0.06304996 -0.14469674 0.2765196 0.3580751 0.29191974
0.09107304 0.24733321 0.5585446 0.9006574 0.037726395 -0.40588722 -0.6184267 -1.3257401
-0.5357843 -0.4395494 -0.18156451 -0.09132559 -0.32388908 -0.38446158 -0.10286735 -0.02354291
0.28252727 -0.095904365 -0.57241416 -0.19449823 0.017931383 0.22072268 -0.15750176 0.20823556
0.280483 -0.29876742 -0.37936717 0.07297485 0.19821599 -0.070974834 -0.2939878 -0.35359025
-0.3780645 0.029004836 0.029996535 -0.005826497 0.030405989 -0.17701569 -0.11300841 0.16906345
0.09140059 0.1463346 -0.09961494 -0.1688733 0.04812696 0.3020871 0.20658667 -0.04070548
0.24867496 -0.033650264 -0.29379162 -0.06358208 -0.35535002 -0.44244012 -0.27250582 -0.7072567
00000000: 49da 8cbe 6925 dbbd 693e 53bc 3329 d83e
00000010: 019d 263e de3a 11bf d7a9 9cbe 2279 933d
00000020: 1ceb 113e 4258 ddbd e4ed f5be a8a7 07be
00000030: 4fef 483e 5db8 3d3e 9d9e 2fbd 84fe 98be
00000040: b7e2 283e 07e4 313e 3fec 6fbd b614 b8be
00000050: a4aa 0abf 0cee e83e bb2e 1f3e 0d80 12be
00000060: 863f d1be bc73 0cbf e359 1bbf 446e 67be
00000070: c8dc 503e a2a0 1fbe 36f1 46bf 6edc dbbe
00000080: 208e 01be d6ce 34be af35 34be e847 43bf
00000090: 54b8 27be 8de3 1fbe c07a 5abe b614 aabd
000000a0: b6de 31bf 6fd4 9abd 72f1 b2be b17d cebe
000000b0: 6240 74bd 7493 48bf bede cb3e 8368 78be
000000c0: 1950 14bf f9a8 993d 7e7f 9cbf c8aa 11be
000000d0: cadb 153e b305 4dbe d306 03be 7ac7 70bf
000000e0: 3b99 9b3d 8058 3c3e 76a4 3cbe 62fb 67be
000000f0: f921 f2be cfb8 393e 19af 1d3e 18ee 21be
00000100: db08 8bbd d3e1 9dbe 4490 643e a359 a5bb
00000110: a622 acbd 5bb7 2ebe d173 c8be dfa5 263e
00000120: 45ae 64be fb5b f4bd c2fe 40be 1938 2cbc
00000130: 0c8b f5bd e84d 123e 95c5 263e befe 453e
00000140: 4188 4fbe 881d 6dbe c550 d53d ceed b73d
00000150: 88a7 9d3d 8051 babe 7684 febd 2805 333e
00000160: ec01 813d 74ed c1bd fc39 50be 21e9 203e
00000170: b09b ee3d 6bb8 6bbd 8014 80be 0ce4 04bf
00000180: 3191 9e3e 8b5a 8a3d a2e3 5a3e 976a 0bbe
00000190: 5f89 6fbd f088 8fbe c776 793e 99b7 c63e
000001a0: ccec 533e 81f2 493e 9dc1 5b3d 86e0 433f
000001b0: 2d24 1b3f 9aeb ee3d 557b 663e 1c9b 523e
000001c0: 6bb5 373f bc67 4c3e 880a 50bd 81f1 4b3e
000001d0: 440a 103f 7c17 5c3f 9a65 d93b e695 bebd
000001e0: 0fad e83d 5383 123f f3e6 8a3e 91e1 623d
000001f0: b74b 473e e4c4 7c3e 57d4 333e e0a2 7b3e
00000200: 4f18 c83d fafb 31be 2978 283f f057 213f
00000210: c1af 223f b14f 623e cc07 b0bd ccf8 d33e
00000220: ac13 623e aa4f a83e 3f8d 7b3d de32 103e
00000230: fda4 da3e 9953 193f ddd9 853e 82b6 5dbe
00000240: 203a 9b3d cba6 23bd d64b 1d3f 79b2 803e
00000250: 50cd 99bc f254 2f3e c3c3 5fbe ae77 223e
00000260: 31c5 dc3c 3bde c13d 1737 9a3d 9bfa a93e
00000270: 7934 d03d 9a76 a3bb f92f cebd 87f0 c5bc
00000280: fce8 4e3d e817 a83d 74d3 993d 9c31 79bc
00000290: dc7f aabe c90c f23d 4a45 1b3e 6142 133e
000002a0: 6127 a13c 5bc4 86bd a068 603e 8a2b 193e
000002b0: ca2c fe3d 3c40 c0bd cf28 803b 9c4a 78be
000002c0: 16ed 75bd 2d57 193e 7516 453e 0b0e 1c3e
000002d0: 0a3b 2dbe 81c6 b5be 3234 8abd d637 123e
000002e0: 12b6 e03e e5ce cebc 243e 7ebe 9e76 033e
000002f0: 547f 8e3d 100b 5a3e 538d 0abe c584 a0bd
00000300: aae4 043e e945 ae3d 6530 03ba 5620 81bd
00000310: 622b 14be fa93 8d3e 9f55 b73e 8176 953e
00000320: 8184 ba3d eb44 7d3e c7fc 0e3f 7c91 663f
00000330: fe86 1a3d 73d0 cfbe 3651 1ebf dab1 a9bf
00000340: 2929 09bf 9e0c e1be 0cec 39be e908 bbbd
00000350: cad4 a5be 26d8 c4be 1eac d2bd 10dd c0bc
00000360: 6aa7 903e 8269 c4bd bc89 12bf 8b2a 47be
00000370: d6e4 923c 2005 623e 2448 21be b43b 553e
00000380: 789b 8f3e 0bf8 98be 6a3c c2be d773 953d
00000390: 22f9 4a3e 415b 91bd 9285 96be c809 b5be
000003a0: ac91 c1be 8d9b ed3c 4bbb f53c 33ec bebb
000003b0: fb15 f93c 9a43 35be f470 e7bd f81e 2d3e
000003c0: 3c30 bb3d bdd8 153e eb02 ccbd 1fed 2cbe
000003d0: c620 453d 29ab 9a3e 758b 533e caba 26bd
000003e0: a6a4 7e3e dcd4 09bd db6b 96be 5237 82bd
000003f0: 70f0 b5be 8387 e2be e285 8bbe c60e 35bf

bias f4 [12]
0.0936375 -0.028889276 -0.12755503 -0.23906127 -0.13311301 0.024059657 0.16179727 0.29419652
0.41887823 0.009226193 0.28426668 -0.07401212
00000000: 05c5 bf3d 34a9 ecbc c99d 02be 7acc 74be
00000010: c74e 08be c218 c53c 2fae 253e eda0 963e
00000020: 3577 d63e 7529 173c 678b 913e ab93 97bd

weight f4 [10, 192]
0.1330688 0.42267838 0.0135380775 -0.072932646 0.4433445 0.3928925 0.13112375 0.00921367
0.30366823 -0.10435175 0.07718554 0.044679444 0.35373354 -0.1602316 0.17231685 0.09007206
-0.21522523 0.046269603 -0.035617243 0.035145104 -0.054471556 -0.16262007 0.16358665 -0.011365366
0.24666904 -0.09718878 0.10011338 0.038044594 0.26426756 -0.037055567 0.061353367 -0.13644667
0.6085355 -0.45192125 -0.20152524 0.0137678785 0.39494297 0.25685063 -0.1545282 0.051652342
-0.063263744 0.16371349 -0.036112156 0.16205493 0.14128718 0.08162454 0.020475002 0.1238186
0.43548164 0.21216315 0.17168094 -0.29771823 -0.1217255 0.16004878 0.068330415 -0.11681496
-0.38261157 0.16475774 0.07967513 0.08944623 -0.2654369 0.24877605 -0.2208253 0.17990544
0.028972775 0.08775495 -0.25879702 -0.15090837 0.020661805 -0.1262108 -0.28598985 -0.043551523
-0.04889325 0.0934662 0.065571174 0.06387628 0.002861751 0.24258865 0.297523 0.2954465
-0.16559584 -0.104957595 0.0006022147 -0.701738 -0.09620261 -0.003894519 -0.15727744 -0.10758611
-0.075579144 -0.14449318 -0.0703552 -0.022591243 0.12302671 -0.4932061 0.04599735 0.37684354
0.15473776 -0.17249717 -0.010989574 0.43868017 0.16813128 0.0035294576 -0.017449902 0.14469527
-0.047170296 -0.065107666 -0.2014111 0.16836481 0.018335057 -0.23084569 -0.3217892 -0.26850855
0.12065394 -0.085268244 -0.07618736 0.22935683 0.20131175 0.11135352 0.06430708 0.08449412
0.10997773 0.12426719 0.050603647 -0.25637308 0.07076325 0.1906032 0.12564386 -0.067053944
0.12932166 -0.15679325 0.1778163 -0.2862358 0.15793258 -0.025182344 0.15569776 0.23301741
-0.034927502 0.009891551 0.11563784 0.4195609 0.170032 0.07546048 0.045951355 0.6533332
-0.34653935 0.4802342 -0.339126 -0.63296086 -0.3104257 0.17486836 -0.24587983 -0.30009294
-0.18423359 0.088198416 -0.044316232 -0.28978652 -0.05307418 0.4053436 0.6697804 0.13338645
0.1569481 -0.31936368 -0.288901 0.31119868 0.06464165 -0.22711366 -0.11352324 -0.05543702
-0.0112855015 0.11017525 0.33922592 -0.034271426 -0.29386765 0.13607131 -0.124244004 0.6195688
-0.39055356 -0.22755386 -0.09874926 -0.338204 -0.15104577 -0.24295212 0.029595759 -0.0015940275
-0.01178552 0.08738382 0.07935817 0.17030808 -0.09826967 0.011302006 0.0038290832 0.057209022
0.6791072 -0.23729472 0.20414723 -0.007790676 0.31292358 -0.020777334 0.12915193 -0.07770998
0.12922592 0.08468082 -0.034490347 -0.30919728 0.22375369 -0.12916997 -0.11732197 -0.35516372
0.023100065 -0.0066615692 -0.1784241 -0.074587256 0.07385769 -0.13711548 -0.1751516 -0.09626777
0.15812916 0.0051078694 -0.14124902 0.014664272 0.21787485 0.1614024 0.040749427 0.16147095
-0.07093078 -0.24185061 0.15031284 0.02296049 -0.206954 0.14096245 0.100833975 0.046953615
-0.30006832 0.17930362 0.11603991 0.18406461 -0.64177006 0.070417345 0.1036828 0.1731707
-0.107668266 0.36612174 0.06251261 0.24812499 0.0032865943 0.12781759 0.27830732 0.2636423
-0.035219602 -0.648342 0.30575508 0.3892387 0.26343954 -1.0322996 0.48214677 0.4050494
00000000: 3043 083e 4d69 d83e d0ce 5d3c b65d 95bd
00000010: 0dfe e23e 3529 c93e 4e45 063e eff4 163c
00000020: 677a 9b3e 5fb6 d5bd 7413 9e3d cb01 373d
00000030: 901c b53e c113 24be d473 303e b377 b83d
00000040: 0164 5cbe 3285 3d3d 63e3 11bd 50f4 0f3d
00000050: 911d 5fbd e085 26be 4283 273e cd35 3abc
00000060: cf96 7c3e e90a c7bd 3e08 cd3d a6d4 1b3d
00000070: 144e 873e 94c7 17bd ab4d 7b3d adb8 0bbe
00000080: fcc8 1b3f 3962 e7be a25c 4ebe ab92 613c
00000090: f735 ca3e ed81 833e a43c 1ebe 6891 533d
000000a0: 6c90 81bd 82a4 273e 57ea 13bd baf1 253e
000000b0: 96ad 103e c42a a73d 31bb a73c 9b94 fd3d
000000c0: 73f7 de3e 4c41 593e 21cd 2f3e 866e 98be
000000d0: 384b f9bd d4e3 233e d1f0 8b3d af3c efbd
000000e0: aae5 c3be 41b6 283e b72c a33d 962f b73d
000000f0: 58e7 87be 26bf 7e3e 0720 62be 2239 383e
00000100: 5058 ed3c deb8 b33d 0b81 84be b987 1abe
00000110: f242 a93c 673d 01be 436d 92be 1563 32bd
00000120: 4a44 48bd 356b bf3d 2e4a 863d 91d1 823d
00000130: 378c 3b3b 2969 783e ef54 983e c344 973e
00000140: f591 29be 02f4 d6bd f2dd 1d3a 1aa5 33bf
00000150: e005 c5bd 303b 7fbb 560d 21be 1b56 dcbd
00000160: 3dc9 9abd 05f6 13be 6316 90bd 4511 b9bc
00000170: 6df5 fb3d 8385 fcbe b867 3c3d a3f1 c03e
00000180: 9373 1e3e 19a3 30be 9d0d 34bc b09a e03e
00000190: 9b2a 2c3e 794e 673b 19f3 8ebc ff2a 143e
000001a0: a435 41bd 2b57 85bd b63e 4ebe d367 2c3e
000001b0: 6733 963c d062 6cbe 8ec1 a4be f479 89be
000001c0: 6a19 f73d 1ea1 aebd 1e08 9cbd 84dc 6a3e
000001d0: ab24 4e3e 500d e43d 6eb3 833d 410b ad3d
000001e0: 013c e13d cc7f fe3d c545 4f3d 5543 83be
000001f0: 53ec 903d 7c2d 433e c9a8 003e 9453 89bd
00000200: e66c 043e 698e 20be 7a15 363e 808d 92be
00000210: 14b9 213e 344b cebc 3c6f 1f3e 1e9c 6e3e
00000220: 2410 0fbd 2c10 223c 88d3 ec3d b0d0 d63e
00000230: de1c 2e3e 068b 9a3d 7d37 3c3d d840 273f
00000240: 9b6d b1be 42e1 f53e eca1 adbe b909 22bf
00000250: 1ef0 9ebe b110 333e ecc7 7bbe c8a5 99be
00000260: bba7 3cbe 5fa1 b43d f084 35bd e65e 94be
00000270: 5064 59bd 3289 cf3e ba76 2b3f 7596 083e
00000280: 01b7 203e a383 a3be d5ea 93be 6f55 9f3e
00000290: d762 843d 7c90 68be df7e e8bd ee11 63bd
000002a0: d3e6 38bc 90a3 e13d 05af ad3e 3260 0cbd
000002b0: d275 96be 4756 0b3e a473 febd 109c 1e3f
000002c0: a3f6 c7be e103 69be 0d3d cabd 1329 adbe
000002d0: beab 1abe 71c8 78be ce72 f23c b0ee d0ba
000002e0: 0e18 41bc 4af6 b23d 8986 a23d 3e65 2e3e
000002f0: 9c41 c9bd 0d2c 393c 5bf1 7a3b 0254 6a3d
00000300: f8d9 2d3f 63fd 72be f90b 513e ed48 ffbb
00000310: 8537 a03e 3a35 aabc 6740 043e 6926 9fbd
00000320: cd53 043e 236d ad3d c045 0dbd 1b4f 9ebe
00000330: b01f 653e 2245 04be 8046 f0bd 05d8 b5be
00000340: 593c bd3c 4b49 dabb cfb4 36be 34c1 98bd
00000350: b342 973d 0068 0cbe f15a 33be 0928 c5bd
00000360: 9cec 213e ea5f a73b 95a3 10be 6a42 703c
00000370: 961a 5f3e ac46 253e dfe8 263d a458 253e
00000380: 2844 91bd b0a7 77be 9ceb 193e a317 bc3c
00000390: c0eb 53be 7658 103e 0b82 ce3d 6f52 403d
000003a0: 8ea2 99be 5e9b 373e 55a6 ed3d 6f7b 3c3e
000003b0: 0b4b 24bf f836 903d a657 d43d a953 313e
000003c0: 2e81 dcbd 4f74 bb3e 9c06 803d 7a14 7e3e
000003d0: e763 573b 9de2 023e 4c7e 8e3e 20fc 863e
000003e0: 6e42 10bd bef9 25bf ee8b 9c3e 4b4a c73e
000003f0: 8ce1 863e 6522 84bf f1db f63e a362 cf3e

bias f4 [10]
0.1656043 -0.011487605 -0.010349749 -0.19886583 -0.1743001 0.31551796 -0.012056948 -0.093443125
0.2094412 -0.18141304
00000000: 2c94 293e 8236 3cbc fe91 29bc 7ca3 4bbe
00000010: ba7b 32be 928b a13e 818a 45bc 1c5f bfbd
00000020: c177 563e 57c4 39be
