Experiments_FashionMNIST/LeNet1_Approx_single_square.pt (torch, 16663 bytes, 6 tensors)

weight f4 [4, 1, 5, 5]
000000 18 fa 37 3e 2b 0d cb bc 26 71 1b be be e6 4a bd
       0.17966497 -0.024786552 -0.15179881 -0.04953646
000010 c7 45 29 be 1c db f1 bc 08 dc 01 3e b7 e7 1c 3e
       -0.16530524 -0.029523425 0.12681592 0.15322767
000020 c6 6c 07 bd ff a5 67 be f7 af 74 3c 2c 72 13 3e
       -0.03306272 -0.22621916 0.014934531 0.14399022
000030 9f 11 67 3d ea d7 36 be e8 2c 84 bb 87 8e f6 3d
       0.05641329 -0.17855802 -0.0040336736 0.12038904
000040 63 b7 9a be 70 35 12 be 93 9b 89 be 83 69 41 be
       -0.30218038 -0.14278197 -0.26876506 -0.18887906
000050 84 15 9b 3d c7 08 f9 be 1e f3 ba be 71 79 bd be
       0.07572463 -0.4863951 -0.3651361 -0.37006715
000060 14 03 ec 3c 6e e2 17 3e 13 7f 04 3e ee 9c 6d 3d
       0.028810062 0.1483247 0.129391 0.058010988
000070 63 35 be 3c 50 18 c4 3e 22 4f dc bd 0b d4 50 3e
       0.023218816 0.382998 -0.10757281 0.20393388
000080 f6 c2 d2 be de 9a f6 3d 9e 53 a0 3e 8b 71 d5 3d
       -0.41164368 0.12041257 0.31313795 0.10422047
000090 3e 2f e0 bc de 16 ba be b8 1f ab be 4b 60 54 3e
       -0.027366277 -0.3634557 -0.33422637 0.20739858
0000a0 fb 71 30 3e b9 2b 95 bd 2a 1e c8 be 73 15 a8 bd
       0.1723098 -0.0728373 -0.39085513 -0.08207216
0000b0 2d dd 86 3d 5d b5 f7 3e 27 df cb 3e 4f e0 96 be
       0.06585155 0.48380557 0.3981869 -0.2946801
0000c0 1b 82 e9 3d 7b d0 87 3e da 66 17 3c df 0b de 3e
       0.11401769 0.26526245 0.00924083 0.43368432
0000d0 1b df 03 3f 37 aa a4 3d 0e 6d c0 bc aa 28 cc be
       0.51512307 0.080402784 -0.023489501 -0.39874774
0000e0 61 2e 2a 3e 70 41 78 3e c8 2e 90 3e 85 26 40 be
       0.16619255 0.24243712 0.2816069 -0.18764694
0000f0 d8 c8 cc be 86 60 e8 bc 8d 22 2d 3e ec d4 ad 3c
       -0.39996982 -0.028366338 0.16907711 0.021219693
000100 d2 c0 b2 be 8b 4a 3b be ce c7 84 3e 2d e3 75 3e
       -0.34912735 -0.18290155 0.2593369 0.24012442
000110 5d 2d 12 bc d8 1e 15 be 82 99 a3 be a0 05 b6 3d
       -0.008921948 -0.14562547 -0.31953055 0.08887792
000120 5c 3d a9 3e d1 ac 5b 3e 5c 8d 96 3d e7 ec 20 bf
       0.33054626 0.21452643 0.07351181 -0.62861484
000130 db 6d 7d bf 99 25 b4 be 71 e2 9a 3e 66 65 0c 3f
       -0.9899575 -0.35184935 0.30250886 0.5484222
000140 94 ce 07 bf 52 5b 30 bf 11 62 0b 3e ca 70 ee 3e
       -0.5304959 -0.68889344 0.13611628 0.46570426
000150 fe d1 ef bd 35 46 a9 bd 64 f9 50 3e f8 e0 0e 3f
       -0.11709975 -0.08265344 0.20407635 0.55812025
000160 c0 e4 ab 3d 84 e3 c0 be c8 a0 c5 bd f0 fa da 3c
       0.0839324 -0.3767358 -0.09649807 0.026730984
000170 23 7b 9b 3e 99 98 b9 3e c1 46 bd be 1e 63 97 be
       0.30367383 0.36249235 -0.36968043 -0.29567808
000180 73 f7 5a be bd 55 a6 3e 3a 1c a1 bc 46 fb d6 bd
       -0.21383457 0.32487288 -0.01966678 -0.10497145

bias f4 [4]
000000 2a 4c d4 3e bc c5 0c 3f 23 f2 58 3f 4c 1c 36 3f
       0.4146436 0.5498922 0.8474447 0.7113693

weight f4 [12, 4, 5, 5]
000000 1b 51 13 3e 8c 7e 05 3e fa bc 34 bc bb f3 50 3d
       0.14386408 0.13036555 -0.011031384 0.05101369
000010 12 e1 43 3e 6a 95 01 3d 8e a9 50 be 5b 2d b1 3d
       0.19128826 0.031636633 -0.2037718 0.08651229
000020 38 e3 36 3e 7a 72 ff 3d ee 17 2e be 4e f6 79 be
       0.17860115 0.124730065 -0.17001316 -0.24410364
000030 c8 e3 e7 bd 7c d5 6a 3d d2 8f f7 3d 50 45 ad bd
       -0.11322743 0.0573325 0.120879784 -0.08460486
000040 25 3e 8f bd c8 7b 1f 3e 60 18 f1 3b f3 4a 1f 3e
       -0.06994275 0.15574563 0.007357642 0.15555935
000050 44 0b 72 bd 03 ec 19 3d 8d f5 90 bd ae b8 24 be
       -0.059092775 0.037578594 -0.07078085 -0.16086075
000060 6b 66 a7 bd 19 79 b2 3d 6e 3a 5b bd bb e6 ce be
       -0.081738316 0.08714504 -0.05352252 -0.40410408
000070 3d b6 9f be 64 9f 97 be c4 33 bf bd 8b cc fa 3d
       -0.31193724 -0.29613793 -0.093360454 0.12246045
000080 cb 38 55 bd 8f 61 2e be b9 85 1f 3c 7f d5 00 3e
       -0.052056115 -0.17029403 0.009736472 0.12581442
000090 2f 27 9e 3e c2 7c fd 3d 13 8b 10 be 88 0e 59 bc
       0.3088927 0.12377311 -0.14115553 -0.013248093
0000a0 56 4b 84 3d e2 bf ab 3d ca 44 cc 3d 63 17 58 3e
       0.06459682 0.08386208 0.09974058 0.21102671
0000b0 ce ef a2 3e b1 f1 08 3e 17 e5 78 3d f6 b3 a0 3b
       0.3182358 0.13373448 0.060765352 0.0049042655
0000c0 71 24 99 3b db 1c 34 3e 0e ea d7 3e e1 e6 16 3d
       0.0046735336 0.17589132 0.42170757 0.036841277
0000d0 e8 2e 6b be 40 b4 2a bf 07 23 f1 be 92 10 62 3e
       -0.22967112 -0.6668129 -0.47097036 0.22076634
0000e0 08 e2 c7 bd de 57 b9 3d b0 bd 9e 3d 9a 2f c1 3c
       -0.09759909 0.090499625 0.07751024 0.023582269
0000f0 11 58 58 3d 7f 0a b5 bd 9e 13 c6 bd 2a 58 16 3e
       0.05281836 -0.088398926 -0.096717104 0.1468207
000100 33 9d 09 3c 1d 22 cb bd 88 12 3d be 59 95 ac bd
       0.008399296 -0.09918616 -0.184641 -0.08426923
000110 a3 b1 35 3d 8d c8 d9 3d fe 04 05 be f9 d9 27 bd
       0.04435886 0.10633955 -0.12990186 -0.04097936
000120 80 05 b3 3c a3 53 22 3d 86 4f 3d bc 5f dd 3f 3d
       0.021853209 0.039630543 -0.011554604 0.046841975
000130 a0 c8 82 be c9 13 b6 3e 01 41 cb 3e 0d 59 22 3f
       -0.2554369 0.3556197 0.39698032 0.6341713
000140 0f 2b 9f be 12 c9 f8 bd 02 c1 e6 3d 65 63 1b 3b
       -0.3108754 -0.12147726 0.11267282 0.0023710367
000150 21 0f 61 be 93 5e 21 be ec 83 05 be 2a 3f 0d bd
       -0.21978427 -0.15758733 -0.13038605 -0.034484066
000160 dc 0e 09 3e 91 36 35 3d 9b fd 38 bd 6e 72 92 3d
       0.13384575 0.04424149 -0.045163732 0.07150732
000170 ea 9c 98 3d 64 0d fc 3c 08 3d 7a be cc b6 d2 3e
       0.07451804 0.030768104 -0.24437344 0.41155088
000180 b2 7d 18 3f 65 04 c2 3d 91 a2 3c bd fc 56 12 be
       0.59566796 0.094734944 -0.046053473 -0.14290994
000190 ae 96 b9 3d 13 3e fc 3d ee bc c9 3d a5 18 ba 3d
       0.09061943 0.12316527 0.098504886 0.09086732
0001a0 32 fb 85 bb 38 6e 69 3e 37 2c 7c 3d f1 9a 3c bd
       -0.0040887827 0.22795951 0.061565604 -0.0460462
0001b0 c6 fc 40 be c0 5b c3 be 53 e0 f0 3d 5b 86 6b bd
       -0.18846425 -0.38155937 0.117615364 -0.05750118
0001c0 cb 33 98 3b 2f b5 0e be 02 fd a2 bd 45 28 00 3e
       0.004644846 -0.13936304 -0.07958414 0.12515362
0001d0 16 9d b5 bd 86 24 11 be c0 c3 85 be 9a 4b 8c be
       -0.088678524 -0.14174089 -0.26125908 -0.2740143
0001e0 e5 df e6 3b da 06 2d be dd d5 c1 bd 30 05 06 be
       0.0070457333 -0.16897145 -0.09464619 -0.13087916
0001f0 d6 00 72 3d 8d e0 a5 be bf 9d 4e bd 7b 44 8d bd
       0.05908283 -0.3239788 -0.050443407 -0.06897827
000200 6b 7e 69 3e ab 7d d2 3d 2e 59 89 be 13 a3 6d be
       0.22802131 0.102778755 -0.2682585 -0.23206739
000210 f3 99 70 3d 15 01 f9 3d 45 c2 83 bd ac bf fa 3d
       0.058740567 0.121584095 -0.06433538 0.1224359
000220 99 68 cb 3d 31 9b 96 bd 56 a3 da 3d 9a ac ff 3d
       0.0993206 -0.07353819 0.10675685 0.12484093
000230 d2 ab 1b 3d b8 00 37 3e a2 82 30 bd f6 af f6 bd
       0.038005657 0.17871368 -0.04309333 -0.12045281
000240 20 a8 0b 3e 46 64 2a be d8 e5 ac 3c 4f 6b 52 bd
       0.13638353 -0.16639814 0.021105692 -0.05137187
000250 4b ec 0d bd e9 bc e3 3e 6d c8 39 bc 88 f9 23 3e
       -0.034649175 0.44480065 -0.011339289 0.16013157
000260 86 f7 a9 bd 31 f6 b0 bd 34 e7 58 3e c5 8f 29 be
       -0.082991645 -0.08640707 0.21181947 -0.1655875
000270 ea 39 71 3d 27 f4 b7 bc 5b 03 10 be 7f ee 00 3c
       0.05889312 -0.022455288 -0.1406378 0.007869362
000280 1b 3f 0e bc 20 ef ec 3d cd db 83 3d 1d a7 09 be
       -0.008682038 0.11569047 0.06438408 -0.13442655
000290 b1 13 17 3e a0 9c 3c be 91 f5 9d 3d 43 4d 3a 3d
       0.14753605 -0.18419123 0.07712854 0.04548384
0002a0 67 96 c7 3d 98 23 95 3d d2 a8 4b be ee 4e 13 be
       0.09745484 0.072821796 -0.19888619 -0.14385578
0002b0 59 4b 5f 3e db 0b 2d 3e 15 bd 01 3f 16 7e a9 bd
       0.21806087 0.16899054 0.5067914 -0.08276002
0002c0 e5 fe 4a be f8 6e 59 bf 5c 2f 31 bf 83 70 98 3e
       -0.19823797 -0.8493495 -0.6921289 0.2977334
0002d0 bb 80 d3 3e 5a a9 62 3e dd 20 8e 3b 7f 58 57 be
       0.4130915 0.22134915 0.0043374137 -0.21029852
0002e0 72 fc ba 3c 76 6f b6 3d fa 23 8a 3d 5a ed 47 3e
       0.022825453 0.08907978 0.06745143 0.19524136
0002f0 af b0 5f be 0f e4 0f 3e f7 2e ba be 1a b3 0e 3e
       -0.21844743 0.14051841 -0.36363956 0.1393551
000300 2a 5b ec bd 6d c1 bf be 6f 38 39 be cb 3b 87 be
       -0.11540826 -0.3745226 -0.18087934 -0.26412806
000310 33 ea 2d 3c a4 76 0b bd eb 4c 1c bf ab d2 44 bf
       0.0106149195 -0.03404869 -0.6105487 -0.76883954
000320 33 e3 0d 3f 64 df c7 3e 2b d8 74 3e d4 47 62 3d
       0.55424803 0.3903762 0.23910587 0.055244282
000330 59 1d a8 3d 28 aa c7 3e 1a ae a1 3e cc d0 ae 3d
       0.082087226 0.38997006 0.3157814 0.085359186
000340 ca 80 9b 3d 90 b0 36 3d 47 84 da 3e ad 36 9c 3d
       0.07592924 0.044601977 0.42679045 0.07627616
000350 e7 de 84 bc 3b 0a 63 3d c3 5d 67 3d 02 99 3f 3e
       -0.01621957 0.05542968 0.056485903 0.18710712
000360 5d 24 0e 3e a0 63 64 3d dc 9e 94 bc 00 06 e3 bd
       0.13881059 0.055759072 -0.018142156 -0.11085129
000370 d9 5e 58 be 8b 18 a6 3d c3 17 05 3e a0 f3 18 be
       -0.21129932 0.0811015 0.12997346 -0.14936686
000380 d2 17 f7 bd b8 32 df bd b2 01 98 bc 71 85 9b bd
       -0.1206509 -0.10898346 -0.018555496 -0.07593811
000390 4f dc c9 bd b4 4a 03 3d 05 ff 58 be 40 ef 1e bd
       -0.09856474 0.032053664 -0.21191032 -0.038802385
0003a0 a5 b9 1c 3d dd 15 25 be 8a 62 34 bd 01 f3 7f be
       0.038262982 -0.16121621 -0.044039287 -0.24995042
0003b0 79 54 7d 3d 77 fc 27 3c 7c d4 96 3c 24 8f 14 3e
       0.061848138 0.010253063 0.018411867 0.14507729
0003c0 48 33 b0 be 4b 00 b0 bd 4c 61 42 bd 17 64 c5 3d
       -0.34414124 -0.08593806 -0.04745607 0.09638231
0003d0 4a ad 46 3e 43 22 d7 bd a7 b9 ce bd 86 b5 f6 bc
       0.19402042 -0.10504582 -0.10094004 -0.030115854
0003e0 24 5e 53 3d b9 08 04 3c 61 d9 b4 3c 0a b3 40 bc
       0.05160345 0.00805872 0.02207631 -0.011761436
0003f0 ae af 0d be d4 b5 bb bb 9f 6f ad 3d db fa 8d be
       -0.13836548 -0.0057284627 0.08468556 -0.2773045

bias f4 [12]
000000 3b 75 39 3f 84 42 a7 3d 60 ef 05 3f 3d ac 93 be
       0.72444504 0.08166984 0.5231838 -0.28842345
000010 60 94 cd be a4 39 fc bc aa bb 42 bf ef ac 1a bf
       -0.40152264 -0.030789204 -0.760676 -0.60420126
000020 6a de c6 be 25 8e 83 be 0f 7d 9b 3d 82 5f b6 bd
       -0.38841563 -0.25694385 0.075922124 -0.089049354

weight f4 [10, 192]
000000 60 2c 07 be e7 a6 eb bd 45 3d 78 3d a4 22 f0 bd
       -0.13200521 -0.115064435 0.060605306 -0.11725357
000010 2a 51 02 3e 45 b7 a3 3c 4c eb 27 3e a9 23 09 be
       0.12726274 0.01998485 0.16398352 -0.1339251
000020 60 9d 0e be e4 d1 47 bd ae 3b 18 bd 43 5f 78 bd
       -0.13927221 -0.04878415 -0.03716629 -0.060637724
000030 77 3e 33 3e 51 3c e9 bd df 13 f3 3d a3 65 e0 3d
       0.17504297 -0.113884576 0.118690245 0.10956886
000040 d6 cd 32 3e 9e 9c 27 3e 9c 75 cb bd 2d d7 d6 bd
       0.17461333 0.16368338 -0.099345416 -0.1049026
000050 18 8a ed bc b1 b7 e9 bd f4 39 0d be 61 f0 0b be
       -0.028996512 -0.114119895 -0.13791639 -0.13665916
000060 8f 7a 14 bd 60 ea fe bb ca 53 b6 bb 4f 26 12 be
       -0.036249693 -0.0077794045 -0.0055641877 -0.14272426
000070 e3 61 0a 3e f0 b6 a4 3c d6 83 f4 3d 1d 4f 8e bc
       0.13513903 0.020106763 0.11939208 -0.017371709
000080 23 2f ff be d6 b5 b6 bd f9 6b 0e bd e4 2d ca bc
       -0.4984065 -0.08921401 -0.03477094 -0.024680085
000090 5f 21 06 be cc ff d4 bd 51 c6 a2 bd 15 56 4a bd
       -0.13098668 -0.10400352 -0.07947982 -0.0493985
0000a0 0b f1 97 3e ce d1 a1 bd 53 f1 42 bd 18 cf b1 3d
       0.2967609 -0.07901345 -0.047593426 0.08682078
0000b0 4f e7 fb 3e e3 e4 19 bd 6d 1c a1 3d c8 d7 e9 3d
       0.49199912 -0.0375718 0.0786675 0.1141811
0000c0 99 84 d2 3c 71 ad 95 3d 0f 21 29 ba 9c b6 58 be
       0.025697993 0.07308472 -0.00064517645 -0.2116341
0000d0 61 c8 a7 3c e2 79 d7 3d 05 6a b0 3d 47 45 bf bd
       0.02048129 0.10521294 0.086139716 -0.093393855
0000e0 48 93 a7 bd 57 9f 91 bd 32 71 72 3e 22 0a 23 bd
       -0.081823885 -0.0711047 0.23675993 -0.039804585
0000f0 2d 88 3f be 0b b9 6c 3e ee cc 41 bd 2a 57 c5 3d
       -0.1870429 0.23117463 -0.047314577 0.09635766
000100 52 b2 90 bd f7 48 39 bd 3d 24 0c be 45 0c 67 3e
       -0.07065262 -0.0452356 -0.13685699 0.22563274
000110 06 06 84 3e ab e0 1f 3e 29 63 31 bd 19 3d 1a 3e
       0.25785846 0.15613048 -0.043307457 0.1506237
000120 14 7c b4 3d 41 28 b8 3d 19 3b b0 3d fa 71 61 bc
       0.088127285 0.08992053 0.08605022 -0.013760084
000130 55 fc 96 bc 74 84 f5 bd 03 68 2b be 1c 13 17 be
       -0.018430868 -0.11988154 -0.16738896 -0.14753383
000140 b7 c8 2b be b1 4f 1f be fd cc 8e bd f9 6a 31 3e
       -0.16775785 -0.15557744 -0.06972692 0.17325963
000150 75 73 07 3e 74 0d 5e 3d 3f 76 89 bb 02 a7 49 3e
       0.13227637 0.05421205 -0.0041950042 0.19692615
000160 0c dc d2 3d 73 79 67 3d d3 d2 b6 3d 1b 67 62 3e
       0.10295877 0.056512307 0.0892693 0.22109644
000170 be fd 0f 3d 14 95 22 be dc 51 cc 3c 3d 7d bc 3b
       0.035154097 -0.15877181 0.024941377 0.0057522343
000180 dd ea ac 3d 35 64 75 bd fb 22 e6 bd 18 08 bd bd
       0.08443234 -0.059910018 -0.11237141 -0.092300594
000190 48 e7 2d bd 67 a9 24 3d 34 67 4f 3c 33 3e c8 bc
       -0.042456895 0.040200617 0.012658883 -0.024443721
0001a0 cd e0 44 3d e1 1e 5f 3d c4 51 56 3d 19 fd 16 3e
       0.04806595 0.054472808 0.05232407 0.14744987
0001b0 c3 83 b0 3c 2b f8 3b 3e c8 32 19 bc 25 21 71 3d
       0.021547204 0.18356387 -0.009350486 0.0588695
0001c0 a4 e9 7f 3e 09 b0 c4 bd 68 11 ee bc 13 9d 67 3e
       0.2499147 -0.096038885 -0.029061034 0.22618513
0001d0 e3 90 84 3b b7 c7 f5 3d a9 ee 92 ba 56 b5 eb 3d
       0.004045592 0.12000983 -0.0011210042 0.115091965
0001e0 cf 74 71 bd ef 80 c2 3c da 3e 8b 3d 6c ad 18 be
       -0.058949288 0.023743121 0.06799097 -0.14909905
0001f0 60 bc 9b 3c de 5e 3e be 81 91 04 be 08 d9 d0 bd
       0.019010723 -0.18590876 -0.1294613 -0.101976454
000200 70 90 a4 be e4 4a f5 3c 0b c4 30 3d b1 93 fc 3c
       -0.32141447 0.029942937 0.04315571 0.030832144
000210 6e 91 8a bd e0 2a c1 bd b8 af 53 bc c1 b2 4e 3d
       -0.0676602 -0.09432006 -0.012920313 0.05046344
000220 6d 93 13 bc b7 d0 ea bc 70 7d 13 3d 04 aa 33 3e
       -0.009007317 -0.028663976 0.0360083 0.17545325
000230 60 92 b2 3c a2 22 5f 3e f4 a6 14 3e f7 50 4f bd
       0.021798313 0.21790555 0.14516813 -0.050614323
000240 0b 06 9f 3d 71 1e d8 3d d2 2e ee 3d 54 ad 1b 3f
       0.077648245 0.10552681 0.11630024 0.6081135
000250 fb 1b ba 3d ac d0 ac ba f6 53 a5 3d 59 df 9c 3e
       0.09087368 -0.0013184748 0.08072655 0.3063915
000260 66 30 9f 3a d6 56 d9 bc d4 fc 8a bd 36 5d 95 be
       0.0012145161 -0.026530664 -0.067865044 -0.29172677
000270 c3 a2 b5 bd ea 04 3f be a1 db 81 be 63 55 17 bf
       -0.08868935 -0.18654218 -0.25362876 -0.59114665
000280 c8 7f 19 3e 88 68 02 be 8d 30 57 bd e0 3d e2 3e
       0.14990151 -0.12735188 -0.052536536 0.44187832
000290 c1 20 bd 3c d8 6f 98 bc 0e b9 0f 3c da 7f 05 be
       0.023086907 -0.018608019 0.008772148 -0.13037053
0002a0 ad a2 73 be 04 71 b8 bc 2d 35 9e 3d cc 3f 90 bc
       -0.23792525 -0.022514828 0.07724986 -0.017608546
0002b0 19 27 6f bd b7 50 0b bd 64 2a 09 be 8b f4 15 3e
       -0.058386896 -0.034012523 -0.13395077 0.14644067
0002c0 fd 55 b1 3d 60 57 97 3d e6 ec bc 3d 8c 97 58 be
       0.08658979 0.07389712 0.09224872 -0.2115156
0002d0 c8 94 99 3b f3 d1 59 3d 9f 8c 14 bd 4c b1 c7 3c
       0.0046869256 0.05317874 -0.03626692 0.024376534
0002e0 d9 7a c8 bd e3 a6 7a 3c 54 20 5d bd 18 44 42 3e
       -0.09789056 0.015298578 -0.05398591 0.18971288
0002f0 45 6c 4f be 99 2f 25 3e de 86 ff bd 7c e2 06 bd
       -0.20256145 0.16131438 -0.12476896 -0.032930836
000300 41 2d 06 bf 02 91 fb bd a8 08 4c bf 78 5e c7 be
       -0.524128 -0.122835174 -0.7970071 -0.3893926
000310 19 f8 97 3d 4b 47 08 be f7 f4 70 3e 05 a0 13 3e
       0.07420368 -0.13308446 0.23530947 0.14416511
000320 3a 1b 39 bb 93 e9 0b bd 7c 9a 44 3e 70 67 28 3e
       -0.0028244988 -0.0341583 0.19199556 0.16445708
000330 6d 71 b7 be aa 55 3f 3e e7 eb 05 3f bc 59 2f 3e
       -0.35828725 0.18685022 0.52313083 0.17124075
000340 08 b0 89 3d f7 02 f1 3e b5 02 88 3e 78 ca e2 bd
       0.067230284 0.47072574 0.26564565 -0.11073774
000350 4b 61 cd 3d d3 07 bd 3d a0 19 55 bc 26 b8 56 3e
       0.10028323 0.09230008 -0.013006598 0.20968685
000360 d2 d5 91 3d 41 fd 11 be 53 fa ba bd a0 4c 02 be
       0.07120861 -0.14256765 -0.09129777 -0.12724543
000370 c5 02 9e ba d0 4f 76 be 8a cd a6 be 8e f5 a3 be
       -0.0012055269 -0.24053884 -0.3257869 -0.3202328
000380 95 7b 41 3d a1 47 a4 3d 1c 11 07 bd 5b 7a 85 bd
       0.047236998 0.08021475 -0.0329753 -0.06517478
000390 f5 b4 a6 3d aa 87 75 bd ee d9 66 3c e4 1c 0d 3d
       0.081399836 -0.059943832 0.014090044 0.03445138
0003a0 48 98 74 bd 8b f2 69 bd 7e 47 49 be 8e 32 c0 3c
       -0.05971554 -0.057116073 -0.19656178 0.023461606
0003b0 04 45 4a 3c 63 d4 04 be 8d 34 12 be 83 1f a6 3d
       0.012345556 -0.12971644 -0.14277859 0.08111479
0003c0 4e c6 2e 3d 28 56 38 3d b9 b5 3d 3e 2b 08 3b 3e
       0.042669587 0.04500404 0.18526353 0.18264835
0003d0 95 05 c5 3d 18 c9 01 3d b0 7e 64 3d fe aa 28 3e
       0.09620205 0.03168592 0.05578488 0.16471478
0003e0 f9 ad 5e 3d 91 26 4b 3d ca f3 b4 bd 76 1b 13 3b
       0.054365132 0.049597327 -0.088355616 0.0022446788
0003f0 a6 49 4e bd 2a 74 b4 bd cb df 88 be f8 13 72 3e
       -0.050363205 -0.08811219 -0.2673324 0.2364043

bias f4 [10]
000000 5f 43 df 3d 5e 73 bb be 86 de 79 3e f9 04 d7 3d
       0.10901522 -0.36611456 0.24401292 0.10498995
000010 2b d0 42 bf 42 2f 61 3e 44 8e 09 3e d4 17 3a 3e
       -0.7609889 0.21990684 0.13433176 0.18173152
000020 9e 29 47 3e e0 9b 96 be
       0.1944947 -0.29415798
