HE-ML/LeNet1.pt (torch, 17125 bytes, 6 tensors)

weight f4 [4, 1, 5, 5]
0	0x3ea274b7	0.3172967
1	0x3f0626e2	0.5240308
2	0x3f124998	0.57143545
3	0x3ee9b816	0.4564826
4	0x3b748e73	0.0037316352
5	0x3e991d69	0.2990525
6	0x3eb25735	0.3483216
7	0x3eceef0e	0.4041676
8	0x3eb1ff8e	0.34765285
9	0x3e4a013d	0.19727035
10	0x3f2052f5	0.6262658
11	0x3e9d4078	0.30713248
12	0x3dc3bce5	0.09557513
13	0xbd706562	-0.058690436
14	0x3e170a60	0.14750051
15	0x3d8dee7d	0.06930254
16	0xbe373207	-0.17890178
17	0xbf1aa959	-0.60414654
18	0xbf03b5a6	-0.5144905
19	0xbe453ba7	-0.19261037
20	0xbf0a319b	-0.5398194
21	0xbf35a2f4	-0.7095177
22	0xbf010b6f	-0.5040807
23	0xbed96773	-0.42461738
24	0xbeba45dd	-0.36381426
25	0x3e6dd3e7	0.23225366
26	0x3ee24b41	0.4419804
27	0x3d606dc1	0.05479217
28	0x3ee07cc6	0.43845195
29	0x3f06b33a	0.5261723
30	0x3e2a5538	0.16634071
31	0x3f88fab7	1.0701512
32	0x3fb2b17a	1.3960412
33	0x3f917a48	1.1365442
34	0x3f4569bf	0.7711448
35	0xbd945ee3	-0.07244661
36	0x3e852ae1	0.26009277
37	0x3efc15a1	0.49235252
38	0x3e66441b	0.22486918
39	0xbe0d155c	-0.13777679
40	0xbeefc9ef	-0.4683375
41	0xbe70ec18	-0.23527563
42	0xbe884347	-0.2661383
43	0xbf056ec8	-0.52122164
44	0xbed67f2d	-0.41893902
45	0xbe8b375f	-0.27190682
46	0xbedb3bdf	-0.42819116
47	0xbf40cc55	-0.75311786
48	0xbed91959	-0.4240215
49	0xbe93615f	-0.28785226
50	0x3deef68d	0.116681196
51	0x3f8678e8	1.0505648
52	0x3f42b8d9	0.76063305
53	0xbd1df478	-0.03856322
54	0xbf1643bc	-0.58697104
55	0x3dc7297b	0.09724709
56	0x3fa44287	1.2832803
57	0x3e8b0bd9	0.27157477
58	0xbce62a99	-0.028096484
59	0xbeabbcca	-0.33542472
60	0x3f467911	0.7752848
61	0x3f7ff82f	0.99988073
62	0x3e1b31d5	0.15155728
63	0xbdbe2ef5	-0.092863
64	0xbe0b05fc	-0.13576502
65	0x3f670dcb	0.9025542
66	0x3f1c3ae0	0.61027336
67	0x3e6a384e	0.22873041
68	0xbe0b492b	-0.1360213
69	0xbdb25d4f	-0.087092035
70	0x3ee43acb	0.44576105
71	0x3dbf5d21	0.09343935
72	0xbea7e8c4	-0.32794774
73	0xbf36a862	-0.7135068
74	0xbe813962	-0.25239092
75	0xbd043f44	-0.032286897
76	0xbe76d227	-0.24103604
77	0xbee2d1e5	-0.44300762
78	0xbed62329	-0.418237
79	0xbea178cb	-0.3153747
80	0xbd737ad5	-0.059443314
81	0xbf14ea79	-0.58170277
82	0xbe83ab87	-0.25716802
83	0xbe96cd67	-0.29453585
84	0xbf0b3186	-0.5437244
85	0x3dbfcc37	0.09365123
86	0x3d217022	0.03941358
87	0x3e314274	0.17310506
88	0x3e9bdd40	0.30442238
89	0x3e8600d4	0.26172507
90	0x3f3b6ef5	0.7321618
91	0x3f8e68dc	1.112575
92	0x3f9b1369	1.2115299
93	0x3f80f45e	1.0074575
94	0x3f6548c7	0.89564174
95	0x3e9b5fc4	0.303465
96	0x3d22ade3	0.039716613
97	0x3dbe9f8f	0.09307777
98	0x3e52eaa3	0.2059732
99	0x3f041785	0.5159839

bias f4 [4]
0	0xbec04314	-0.37551177
1	0xbdb1ce75	-0.08681957
2	0xbebbb520	-0.36661625
3	0xbdcb813d	-0.099367596

weight f4 [12, 4, 5, 5]
0	0x3e827099	0.2547653
1	0x3ce9a095	0.028518954
2	0x3e2a3efe	0.16625592
3	0x3e42149b	0.18953173
4	0x3d9a84e4	0.07544878
5	0x3d956c05	0.07295994
6	0x3c005237	0.007832102
7	0x3e0fa408	0.14027417
8	0xbe4a6166	-0.19763717
9	0xbe90de0b	-0.28294405
10	0x3e84e76e	0.25957817
11	0xbd94ff83	-0.072752975
12	0x3ddf1744	0.108931094
13	0xbd7fb5a8	-0.0624291
14	0x3e6a287e	0.22867009
15	0x3eb2d777	0.34930012
16	0xbea5ffb1	-0.3242164
17	0xbf21403f	-0.62988657
18	0xbdd71024	-0.105011255
19	0x3e69544a	0.2278606
20	0x3e5dd1a5	0.21662004
21	0x3ef83cd0	0.48483896
22	0x3f665c7f	0.8998489
23	0x3f0e8cca	0.5568358
24	0xbe82fdbb	-0.25584206
25	0xbe4ee922	-0.2020612
26	0xbd605599	-0.054769132
27	0xbd77392e	-0.060357265
28	0x3dd607ed	0.104507305
29	0x3e1738d9	0.1476778
30	0xbd77cfb7	-0.060500827
31	0x3e2e74e8	0.17036784
32	0xbcab4022	-0.020904604
33	0x3dd55725	0.10417012
34	0xbe198e36	-0.14995655
35	0x3ecff51f	0.406167
36	0x3ec3c9b9	0.3823984
37	0x3e55addd	0.20867105
38	0x3e009d5f	0.12560032
39	0xbe8f656f	-0.28007075
40	0x3e1c800a	0.15283218
41	0xbe38012e	-0.179692
42	0xbebfa234	-0.3742844
43	0xbe21b3ac	-0.15791196
44	0xbe815d3d	-0.25266448
45	0x3d4275d2	0.047475643
46	0x3f4cb7fd	0.79968244
47	0x3f563c15	0.8368543
48	0x3e8fe232	0.2810226
49	0xbe9a9ea6	-0.30199164
50	0xbdb5f2b2	-0.08884181
51	0xbe816d28	-0.25278592
52	0xbdac8d52	-0.08425392
53	0x3dde10b9	0.10843033
54	0x3c08642a	0.008324662
55	0xbd085d58	-0.033292145
56	0xbe18994a	-0.14902225
57	0xbdbe8a52	-0.09303726
58	0xbe4c408b	-0.19946496
59	0xbee2deae	-0.44310516
60	0x3e81df62	0.2536574
61	0xbe580491	-0.21095492
62	0xbf1a7d95	-0.6034787
63	0xbf4167dd	-0.7554911
64	0xbecdd8bf	-0.40204427
65	0x3ec06cc0	0.3758297
66	0xbdbab1d3	-0.091159485
67	0xbf02223f	-0.50833505
68	0xbece72ba	-0.40321904
69	0xbe5e3446	-0.21699628
70	0x3e9fcdbd	0.31211653
71	0x3dcdcfff	0.10049438
72	0x3e1f46dc	0.15554374
73	0x3ce21932	0.027599905
74	0xbda49f45	-0.08038191
75	0xbd604881	-0.054756645
76	0xbe5ee410	-0.21766686
77	0xbe0c4d0f	-0.1370127
78	0x3ddf0a69	0.108906575
79	0xbe75784e	-0.23971674
80	0x3ebc2e3f	0.36754033
81	0x3dcb0afd	0.09914205
82	0x3d8a2465	0.06745223
83	0x3df60417	0.12012499
84	0x3e94e8a5	0.29083744
85	0x3e836e3b	0.25670037
86	0x3d64372d	0.055716682
87	0x3e7a3483	0.24434094
88	0x3e9033b0	0.28164434
89	0x3dafac19	0.08577747
90	0x3ebacd98	0.3648498
91	0x3f442165	0.76613456
92	0x3f6ed7c5	0.9329799
93	0x3f0d1a4a	0.5511824
94	0x3e8af2aa	0.27138263
95	0xbe0f0c2d	-0.13969488
96	0xbeb5029b	-0.3535355
97	0x3d79e59c	0.06100999
98	0x3e79bcc2	0.24388412
99	0x3f0ba916	0.5455488
100	0x3e871185	0.26380554
101	0xbebed0ff	-0.37268826
102	0xbec9885d	-0.3936185
103	0x3ead30f8	0.33826423
104	0x3f033dd1	0.512662
105	0xbcac0d7f	-0.02100253
106	0xbecde234	-0.40211642
107	0x3eb7fc11	0.359345
108	0x3ee59ade	0.44844717
109	0x3f831646	1.0241172
110	0xbe636737	-0.22207342
111	0x3e172a2e	0.14762184
112	0x3eb2af11	0.3489919
113	0x3f29d8cd	0.66346437
114	0x3e9c84e3	0.30570135
115	0xbe316094	-0.17321998
116	0x3ecadd8d	0.39622155
117	0x3e55d072	0.20880297
118	0x3d1dd402	0.038532265
119	0xbf020c97	-0.5080046
120	0x3e00f164	0.12592083
121	0x3e77968e	0.24178526
122	0xbdf8e7a3	-0.12153556
123	0xbec8516d	-0.39124623
124	0xbd43c1e6	-0.047792338
125	0xbe65ba2d	-0.22434302
126	0xbefa1a77	-0.48848316
127	0x3eb0c701	0.34526828
128	0xbdac9e0e	-0.08428584
129	0x3ecbf398	0.39834285
130	0xbf235b1c	-0.63810897
131	0xbe615667	-0.22005616
132	0xbcde5068	-0.02713795
133	0x3f2e7282	0.68143475
134	0x3e4ad689	0.19808401
135	0xbf1ec9b7	-0.6202654
136	0xbd0262b3	-0.03183241
137	0x3eecfa80	0.46284866
138	0x3eb9cdd8	0.3628986
139	0xbeaa7715	-0.33293977
140	0x3e0d3a05	0.13791664
141	0x3f1dc05c	0.6162164
142	0x3df4ee93	0.11959567
143	0xbe09499f	-0.1340699
144	0xbed5bd66	-0.41746062
145	0x3e09d557	0.13460289
146	0x3eb23f95	0.34814134
147	0xbe7957af	-0.24349855
148	0xbe78c947	-0.24295531
149	0xbdddbf00	-0.10827446
150	0x3db46473	0.08808222
151	0xbee8cada	-0.45467263
152	0x3e46d7c9	0.19418253
153	0xbebd85f4	-0.3701626
154	0x3d95e1ee	0.07318483
155	0x3d2227c6	0.039588712
156	0xbe735fa1	-0.23766948
157	0xbd5ab866	-0.053398512
158	0xbda8f4c4	-0.0824981
159	0x3e63f8a6	0.2226282
160	0xbed55c72	-0.41672093
161	0xbe2516b9	-0.1612195
162	0x3e35a9e7	0.17740594
163	0x3e6de4eb	0.23231857
164	0x3eb8bd8b	0.3608211
165	0xbe97d34a	-0.29653388
166	0xbcc25d0d	-0.02372601
167	0x3d00e09d	0.031464208
168	0x3e2aa271	0.16663529
169	0x3e7c4e04	0.24639136
170	0xbed3b86e	-0.41351646
171	0xbbe16d9e	-0.0068795225
172	0x3e0467d8	0.12930238
173	0x3e796a3a	0.24356928
174	0x3d8f50cd	0.069978334
175	0xbd22ee63	-0.039778125
176	0xbc787177	-0.015163771
177	0x3eea78f3	0.45795402
178	0x3e376e35	0.17913134
179	0xbecfa9d3	-0.40559253
180	0xbe97b2cc	-0.296286
181	0x3e9f4e2d	0.3111433
182	0x3ec9d541	0.39420512
183	0x3e49b74b	0.19698827
184	0xbe2a9158	-0.16657007
185	0xbe3ff686	-0.18746385
186	0xbd205590	-0.0391441
187	0xbe803ab8	-0.250448
188	0xbf03f421	-0.51544386
189	0xbef38a61	-0.47566512
190	0xbe03d3f9	-0.1287383
191	0x3e020be8	0.12699854
192	0xbd82c229	-0.06384689
193	0xbe0007b4	-0.12502939
194	0xbd9192ef	-0.071081035
195	0xbef2c63f	-0.47416875
196	0x3d790a77	0.060800996
197	0x3e6588d5	0.22415479
198	0xbdc722b6	-0.097234175
199	0xbe547175	-0.20746405
200	0xbbc8f7e3	-0.006133066
201	0xbe49eeeb	-0.19720046
202	0x3e4b82f9	0.19874181
203	0x3ecfc25f	0.4057798
204	0x3e71552a	0.23567644
205	0x3d926c8d	0.07149611
206	0x3e0aa2e8	0.13538706
207	0x3e801d24	0.25022233
208	0x3dc699c4	0.09697297
209	0x3ec5690b	0.38556704
210	0xbc7d94da	-0.0154773835
211	0x3f2a9bf1	0.666442
212	0x3f2e64ba	0.68122447
213	0x3f216f47	0.6306042
214	0x3f98ce37	1.1937932
215	0xbe9bf378	-0.3045919
216	0x3e2edfc5	0.17077549
217	0x3e139df8	0.14415729
218	0x3f1297ba	0.57262766
219	0x3f1afa29	0.60537964
220	0xbe855c4e	-0.26046985
221	0xbdca400e	-0.09875499
222	0xbe199b51	-0.15000655
223	0xbe42197c	-0.18955034
224	0xbea8a5a9	-0.3293889
225	0x3e41ed22	0.18938115
226	0x3d088460	0.033329368
227	0x3c078e0c	0.008273613
228	0x3e406040	0.18786716
229	0x3ecf1f33	0.4045349
230	0xbdd166ff	-0.10224723
231	0xbea5cc02	-0.32382208
232	0xbe9c90b1	-0.3057914
233	0xbe07dc07	-0.13267528
234	0x3efc1f51	0.49242643
235	0x3e0cf8b9	0.13766755
236	0x3ea84661	0.32866195
237	0x3eaf9074	0.34289896
238	0x3e2c80cd	0.16846009
239	0x3f711097	0.9416594
240	0x3c7378af	0.014860316
241	0x3d93f1bf	0.07223844
242	0x3c2e6eeb	0.010646562
243	0x3da8d9db	0.08244678
244	0x3f205b47	0.6263928
245	0xbdb4a3d1	-0.08820308
246	0xbd24a50d	-0.040196467
247	0xbe9b7dcf	-0.30369422
248	0xbe8e7fba	-0.27831823
249	0xbe0d478e	-0.13796827
250	0x3df882de	0.12134336
251	0xbe3a51b8	-0.18195236
252	0xbe6b253d	-0.22963424
253	0x3d6a30d5	0.057175476
254	0x3df7394d	0.12071476
255	0xbe5b1054	-0.21392947

bias f4 [12]
0	0xbe6cd490	-0.23127961
1	0xbf0a16b2	-0.5394088
2	0x3ea3d4d6	0.31998318
3	0xbe80e7c6	-0.2517683
4	0x38f5d5b1	0.000117223135
5	0xbda84026	-0.0821536
6	0xbc48c69d	-0.012254384
7	0xbe2a3791	-0.1662276
8	0xbdca514d	-0.09878788
9	0xbef5619f	-0.4792604
10	0x3e3454ae	0.17610428
11	0x3eb26daf	0.34849307

weight f4 [10, 192]
0	0x3e6d3801	0.23165895
1	0xbe81efde	-0.25378317
2	0x3d9c71d0	0.076388955
3	0xbd0b69a2	-0.034036286
4	0x3e9521c9	0.2912734
5	0x3dc767ef	0.09736621
6	0x3ed436ff	0.4144821
7	0x3ecef452	0.40420777
8	0x3e208cd3	0.1567872
9	0x3edc1d32	0.42991024
10	0x3ebf1bb2	0.37325817
11	0xbd9535de	-0.07285665
12	0xbe2baecc	-0.16765898
13	0xbe5569f2	-0.20841196
14	0xbf1d620b	-0.61477727
15	0xbf159a54	-0.5843861
16	0xbe89ba38	-0.26899886
17	0x3dcfe61c	0.10151312
18	0xbcee69a5	-0.02910311
19	0xbf0ff866	-0.562384
20	0x3eae9d3a	0.3410433
21	0x3e1fca54	0.15604526
22	0xbe9e7e96	-0.30955952
23	0xbf4ba6c3	-0.79551333
24	0x3dcf04e3	0.10108354
25	0xbcaeb9b7	-0.02132879
26	0xbedca125	-0.43091694
27	0xbe6c7f1d	-0.23095365
28	0x3eb591c6	0.3546278
29	0xbdedd7db	-0.11613437
30	0xbd1ec2a4	-0.038759843
31	0x3f15d97c	0.5853498
32	0xbd39c93a	-0.04535792
33	0xbd8cfdc9	-0.06884343
34	0x3e393a79	0.18088712
35	0x3e443e2d	0.19164343
36	0xbe1be93c	-0.1522569
37	0x3eb69359	0.35659292
38	0x3dacb372	0.08432664
39	0x3e30aabb	0.17252629
40	0x3e8669f9	0.26252726
41	0xbdcf5d10	-0.10125172
42	0xbeac1b72	-0.3361469
43	0x3e96db79	0.2946432
44	0xbe6cb883	-0.2311726
45	0xbe88baab	-0.26704916
46	0xbf0cdc13	-0.55023307
47	0x3e450a48	0.19242203
48	0xbea51caa	-0.3224843
49	0xbcf09f38	-0.029372796
50	0xbe64f188	-0.22357762
51	0xbf376603	-0.7164003
52	0x3c145db4	0.009055544
53	0x3e1e48ae	0.15457413
54	0x3d786d60	0.060651183
55	0xbed25336	-0.4107911
56	0x3e9dfed4	0.3085848
57	0x3d86c615	0.0658075
58	0xbd673361	-0.056445483
59	0xbefac5f8	-0.48979163
60	0x3e2a2937	0.16617285
61	0x3f1533be	0.5828208
62	0x3ca02ef4	0.019553639
63	0xbf19b46c	-0.60040927
64	0xbdaf0b0c	-0.08547029
65	0xbeb51ab5	-0.35371938
66	0xbdcc5ce4	-0.09978655
67	0x3d195278	0.037432164
68	0xbe40245e	-0.18763873
69	0x3df9fbca	0.12206228
70	0x3d87c9ce	0.06630288
71	0x3eb2ef2c	0.349481
72	0x3f69bce8	0.91303873
73	0xbdc74e61	-0.097317465
74	0x3dca71c1	0.09884978
75	0x3e73367c	0.23751253
76	0x3f01c486	0.50690496
77	0x3c966b8c	0.01836183
78	0xbe3d2e36	-0.1847466
79	0xbe883fb7	-0.2661111
80	0x3ea9db4b	0.3317512
81	0x3e0dc610	0.13845086
82	0x3ea8bc11	0.32955983
83	0xbd864647	-0.06556373
84	0xbcac5cd9	-0.021040367
85	0xbf058b5a	-0.5216576
86	0xbeffc72a	-0.49956638
87	0xbe5bd3f3	-0.21467571
88	0xbe2ee309	-0.17078795
89	0xbede33f3	-0.4339901
90	0x3e14913b	0.14508526
91	0xbf26a4bc	-0.65095115
92	0x3db175c1	0.08665038
93	0x3f1aacb8	0.604198
94	0xbe19c8be	-0.15017983
95	0x3e17f1dc	0.14838356
96	0x3e98de8d	0.29857293
97	0x3e50d5d2	0.20394066
98	0x3d5bcb5c	0.053660735
99	0xbe93ac6a	-0.2884248
100	0x3d5c4261	0.05377424
101	0x3ee8c64c	0.45463789
102	0x3f175518	0.5911422
103	0xbd176994	-0.03696592
104	0xbe46c3e3	-0.19410662
105	0x3ea3d369	0.3199723
106	0x3f00fb4d	0.50383455
107	0xbecd27ad	-0.40069333
108	0xbe83ef22	-0.2576838
109	0xbece62ad	-0.4030966
110	0x3dfc9b88	0.12334353
111	0xbdad5337	-0.084631376
112	0xbed81606	-0.42204303
113	0xbe85b491	-0.26114324
114	0x3db37834	0.08763161
115	0x3e8a8ad9	0.27059057
116	0x3e339aca	0.17539516
117	0xbeda6765	-0.4265701
118	0x3e1474ae	0.14497635
119	0x3eede432	0.46463162
120	0x3ec0dc71	0.37668183
121	0xbe24b08a	-0.1608297
122	0x3d726512	0.05917842
123	0x3e0c2dbe	0.13689324
124	0x3e0372bc	0.12836736
125	0xbd223130	-0.03959769
126	0xbed447cd	-0.4146103
127	0xbd17ec42	-0.037090547
128	0xbd8d29c2	-0.0689273
129	0x3dea8ab0	0.11452234
130	0xbdc5c618	-0.09656924
131	0xbeee8663	-0.46586904
132	0xbe779408	-0.24177563
133	0xbe53c2d6	-0.20679793
134	0xbdae83cd	-0.08521233
135	0xbec88c05	-0.39169326
136	0xbeca25a1	-0.39481834
137	0xbd567dee	-0.05236619
138	0xbeaa66df	-0.3328161
139	0x3e4f53da	0.2024683
140	0xbe8e6492	-0.27811104
141	0xbebd9818	-0.370301
142	0x3db28e7f	0.08718585
143	0x3f0d695b	0.55238885
144	0x3f0007b3	0.5001175
145	0x3b58b0f2	0.0033064452
146	0xbd929d07	-0.07158857
147	0xbc53b104	-0.012920622
148	0x3f01bf69	0.50682694
149	0x3e89a4eb	0.26883635
150	0xbc724107	-0.014786012
151	0xbd5d4909	-0.05402473
152	0x3f46a4bb	0.7759511
153	0x3eaf6740	0.3425846
154	0x3e36b448	0.1784221
155	0x3e87ac41	0.26498607
156	0x3f291509	0.6604772
157	0x3ef6f45d	0.4823331
158	0xbede9c45	-0.434786
159	0xbf2a5730	-0.6653929
160	0xbdfc9774	-0.12333575
161	0x3d6007c1	0.054694895
162	0x3e6ec0d8	0.23315752
163	0x3e9c7ee5	0.30565563
164	0xbf065bcc	-0.5248382
165	0x3ec0cd87	0.37656805
166	0x3e5a6ddb	0.21330969
167	0x3e37e760	0.17959356
168	0xbe0cbcc6	-0.13743886
169	0x3ef6f56c	0.48234117
170	0x3eebac30	0.46029806
171	0x3ec6c365	0.3882095
172	0xbedf5f87	-0.4362757
173	0xbd93eae3	-0.072225355
174	0x3e4fd5c8	0.20296395
175	0x3e28b514	0.16475326
176	0xbd449d82	-0.048001774
177	0xbf00fc9b	-0.50385445
178	0xbe3408c4	-0.17581469
179	0x3e8402fb	0.25783524
180	0xbeae3d85	-0.3403131
181	0xbe3f5c7d	-0.18687625
182	0x3d2b9736	0.041892253
183	0x3e9ef519	0.3104637
184	0xbd8b5e6b	-0.06805118
185	0x3bbce802	0.005764962
186	0x3c66d75b	0.014089431
187	0x3dc60e2d	0.096706726
188	0x3ee9c80a	0.4566043
189	0x3ea168f7	0.31525394
190	0xbe49c67f	-0.19704627
191	0xbe9467b0	-0.28985357
192	0x3d522446	0.051304124
193	0x3ef327f8	0.4749143
194	0x3f5d0da6	0.8634895
195	0xbdc78910	-0.097429395
196	0x3e148dcb	0.14507215
197	0x3f156b2c	0.58366656
198	0x3f2d0689	0.67588097
199	0x3e802977	0.25031635
200	0x3d814b4f	0.06313192
201	0x3de75173	0.11294832
202	0x3ed0bc6b	0.40768752
203	0x3d73030f	0.05932909
204	0x3dc448a8	0.095841706
205	0xbe998685	-0.29985443
206	0x3ea631a8	0.3245976
207	0xbe9724df	-0.29520318
208	0xbf3132c4	-0.6921809
209	0xbd215810	-0.039390624
210	0x3f1b77a8	0.60729456
211	0x3ef1296c	0.47101915
212	0xbe0b9d48	-0.13634217
213	0xbc97c033	-0.018524265
214	0xbeccb96a	-0.3998521
215	0x3d80ba57	0.062855415
216	0xbdc34d4e	-0.09536229
217	0xbdbc2ecf	-0.091886155
218	0xbeaf8e7f	-0.34288403
219	0xbe6015c9	-0.2188331
220	0xbe95dbd2	-0.29269272
221	0x3dc07c9e	0.09398769
222	0x3dfa14d6	0.122110054
223	0xbe67911f	-0.22613953
224	0x3f0de494	0.5542691
225	0xbe823a58	-0.25435138
226	0xbe4ce929	-0.20010819
227	0x3c8acf93	0.016944682
228	0x3d8095d0	0.062785745
229	0x3e315edd	0.17321344
230	0x3ea4ddc9	0.3220046
231	0x3e8f7316	0.2801749
232	0x3d987dca	0.07445867
233	0x3f31745f	0.69318193
234	0x3e93aea3	0.28844175
235	0x3dfcd986	0.12346177
236	0x3e8650a4	0.262334
237	0x3f4b3224	0.79373384
238	0xbe09efdc	-0.13470405
239	0x3ed2f044	0.41198933
240	0x3e1f1168	0.15533984
241	0xbe146d37	-0.14494787
242	0xbe7ed647	-0.24886428
243	0xbdc9309b	-0.09823724
244	0xb98ecfcd	-0.00027239174
245	0xbd318b5e	-0.0433458
246	0xbef5633f	-0.4792728
247	0xbdc8cfbc	-0.09805247
248	0xbda084b4	-0.07837811
249	0xbeab2107	-0.33423635
250	0xbe1393d8	-0.14411867
251	0xbe0f0b30	-0.13969111
252	0xbea07e1c	-0.31346214
253	0xbd0c9a32	-0.03432674
254	0x3d61e09c	0.055145845
255	0xbdebbc60	-0.11510539

bias f4 [10]
0	0xbef21290	-0.47279787
1	0x3d960afa	0.07326312
2	0x3ee8fa45	0.4550344
3	0x3e26df6a	0.16296163
4	0xbe2ca981	-0.16861536
5	0x3e264910	0.16238809
6	0xbe1f24c7	-0.15541373
7	0x3e7621b8	0.240363
8	0xbe6fdd3e	-0.23424241
9	0xbdd2c5ec	-0.10291657
