HE-ML/LeNet1_Approx.pt (torch, 17061 bytes, 6 tensors)

weight f4 [4, 1, 5, 5]
000000 c8 c8 65 bc e6 b5 81 3e f8 ea 35 be 34 b7 61 be
       -0.014024921 0.2533409 -0.17765415 -0.22042543
000010 62 24 48 3e 0a 34 3f 3e 61 d2 04 3f 7c 2b a9 3e
       0.19545129 0.18672195 0.5188351 0.33040988
000020 c0 4d 8c be d9 d5 09 bd 1a 10 2b bf 0d 98 d1 3e
       -0.2740307 -0.033651207 -0.66821444 0.40936318
000030 b6 0e f4 3e 0a 2e c8 be 60 2a 44 be 46 1d 36 bf
       0.47667474 -0.39097625 -0.1915679 -0.7113842
000040 00 61 66 be 86 4e 07 3f c2 ea b3 bd 29 69 3b bd
       -0.2249794 0.5285419 -0.08785011 -0.045754585
000050 3c a3 e1 bc 18 cc 9a 3d e6 bb ad 3d fb 1b 80 3d
       -0.027543657 0.07558459 0.084831044 0.06255337
000060 f0 40 33 3e cf be 49 3e 41 9b 5f be b3 51 7e bc
       0.1750524 0.19701694 -0.21836568 -0.015522408
000070 39 15 bc 3e ed b5 34 3e 92 3c b4 be 3e 18 2e be
       0.36734942 0.17647524 -0.3520246 -0.17001435
000080 3a e4 18 3e 74 ff 76 3d a0 e3 c1 be c6 36 2b be
       0.14930812 0.060302213 -0.37868977 -0.16720113
000090 c5 62 75 3e a1 b3 09 3f 78 f7 87 3e ff 1a 1f 3c
       0.23963459 0.53789717 0.2655599 0.009711026
0000a0 59 23 4b 3d 98 b8 c1 3e 8a f8 93 3e 02 02 09 3d
       0.049594257 0.37836146 0.28900558 0.03344918
0000b0 e6 6e d6 3d 8b 64 61 be ea c8 2f be 09 35 f6 3d
       0.10470371 -0.2201101 -0.17166486 0.120218344
0000c0 a6 7c b9 3d 14 b6 44 be 6d 72 cc bd c6 7a 1d 3f
       0.09056978 -0.19210082 -0.099827625 0.6151546
0000d0 03 7f 8c 3e d9 2c ac be 89 d2 b1 bd c1 2c 72 3e
       0.27440652 -0.33627966 -0.086827345 0.23649885
0000e0 7d d1 94 3e 3e 2b 10 bf ec e4 e8 be 8c 5a a2 3d
       0.29066077 -0.5631598 -0.45487154 0.07927427
0000f0 a3 64 6e bd ce 74 8d be 3c 44 3b bf 42 bc 9f bd
       -0.058201443 -0.27628177 -0.7315099 -0.07799579
000100 c4 53 ab 3e 0b cc 17 be ca d5 cc 3c 20 67 c3 3d
       0.33462346 -0.1482393 0.025004286 0.09541154
000110 4b f2 a6 3e 28 7c 9b 3d 25 9a 66 3e 73 00 89 3e
       0.3260673 0.0759204 0.22519739 0.26758155
000120 35 9c 8a bd 58 eb c0 3d 62 47 78 be b7 27 93 3e
       -0.067680754 0.09419888 -0.2424598 0.28741238
000130 86 57 4d be 8b e5 e2 bd 6c 3c 06 3e 3f 14 0d be
       -0.20052919 -0.11078938 0.13108987 -0.13777255
000140 5d c2 0d be ee 52 e1 3b b7 14 03 3e 71 c3 0e 3e
       -0.13843675 0.006876341 0.12800871 0.13941742
000150 08 4b e9 3d ef 09 82 3d 85 00 da be 55 57 1c 3e
       0.11391264 0.06349551 -0.4257852 0.1526769
000160 94 2a 10 3f 8c 70 27 3f 9c 8d e4 bc 1b c6 96 be
       0.5631497 0.6540611 -0.027899556 -0.29448017
000170 41 3c 90 be 15 1b 8e be 33 f8 87 bd 89 f1 2b 3e
       -0.2817097 -0.27755037 -0.06639137 0.16791357
000180 69 e4 7f be a1 02 24 be e9 18 be be b8 22 a9 be
       -0.24989475 -0.16016628 -0.3712838 -0.330343

bias f4 [4]
000000 e8 fe b1 bb 3f fe 2b 3e 91 3a 6f be c6 cb 8d be
       -0.0054319985 0.16796206 -0.23362185 -0.2769453

weight f4 [12, 4, 5, 5]
000000 c0 f2 8e 3c 36 15 bf 3c f6 08 c8 bd 69 cb 9e 3d
       0.017449737 0.023325544 -0.09767334 0.07753641
000010 4d eb 07 be 51 b1 3b 3e 3a 33 9c 3e 25 9f 30 3e
       -0.13273354 0.1832936 0.30507833 0.17248209
000020 c1 ac 15 be 56 a3 b7 be 4b 40 90 bd a0 dc 17 be
       -0.14616682 -0.35866803 -0.07043513 -0.14830256
000030 28 4c 73 bd 15 76 41 be 77 45 91 be 79 2f ca be
       -0.0593988 -0.18892701 -0.2837331 -0.39489344
000040 03 61 bd be 41 3e bc be 39 67 77 be 1a 96 83 3d
       -0.36988077 -0.36766246 -0.2416047 0.06425114
000050 5a 42 db bd 63 cc 89 be a9 a3 99 be 35 25 9d bd
       -0.10706015 -0.26913747 -0.30007675 -0.07673112
000060 3e fc e2 3d 20 e9 fa 3d 34 ea 9b 3d db 43 cf bd
       0.11083268 0.12251496 0.0761303 -0.10120364
000070 61 86 e2 bd 19 aa c4 3b 17 72 60 be 6f 5f 48 bd
       -0.11060787 0.0060017225 -0.21918522 -0.048919138
000080 70 c1 d5 bd 58 d4 1d 3a 0c 5c 6a 3e bc c7 08 be
       -0.10437286 0.00060207164 0.22886676 -0.13357443
000090 e5 0c 5f be 07 30 26 3e b0 3f bb 3d 8b 4d 5a bd
       -0.21782263 0.16229258 0.09143007 -0.053296607
0000a0 73 25 e6 bd 07 d4 82 bd e7 0d 6e 3d 88 93 b0 bd
       -0.112376116 -0.06388097 0.058118727 -0.08621889
0000b0 6a 0a 3f 3c 99 ed 18 3d 57 6e 83 3e 34 d2 42 3e
       0.011660198 0.037335966 0.2567012 0.19025499
0000c0 87 79 3c 3d 6e 55 d9 bd b4 b2 4a 3d 0a 1f 23 be
       0.046014335 -0.106119975 0.04948683 -0.15929809
0000d0 d6 fd 2f bd 6b 4a 82 bd 5e 62 19 be 60 af e5 bd
       -0.042966686 -0.0636185 -0.1497893 -0.11215091
0000e0 27 b4 2c be 53 4f 44 be 8d 2d 41 be 97 c2 45 3e
       -0.16865598 -0.19170885 -0.18865032 0.19312511
0000f0 2a 8e 95 be 69 be 69 be 74 5a 21 be 78 3e e6 3d
       -0.29210025 -0.22826542 -0.15757161 0.11242384
000100 c4 30 06 be 07 64 72 bd e2 7e 11 3e 67 58 24 be
       -0.1310454 -0.059177425 0.14208558 -0.16049348
000110 02 3b 19 be 96 fb 6c bd 3d 7b 15 3e a1 49 98 3d
       -0.14963916 -0.05785712 0.14597793 0.074359186
000120 46 b6 24 3d 0c 6f ba 3d 93 e6 8f bd 63 2e 02 3e
       0.040212892 0.09103212 -0.070264004 0.12713008
000130 84 6c 8b 3d 66 47 f2 bd b8 a9 74 be b0 5f f2 3d
       0.06807807 -0.118300244 -0.23892868 0.11834657
000140 43 83 93 3e 3a 56 a7 3e c1 ec 6f 3e 2a ef a9 3c
       0.28811082 0.32682973 0.23430158 0.020743925
000150 94 42 dd bd 4a ba fe 3e b6 7e b9 3c f7 20 ab bd
       -0.108037144 0.49751502 0.022643428 -0.08355897
000160 d8 8a ec 3c 1a b9 58 3d 9a 87 e0 bd bd 7d 7f be
       0.0288748 0.0529109 -0.10963364 -0.24950309
000170 48 78 1f bd 97 c9 e5 bd d6 93 0f 3e 19 c6 e2 3c
       -0.03893307 -0.11220091 0.14021239 0.027682351
000180 b2 28 13 be 99 cf 0a 3d 96 59 10 bd 2d 59 04 3e
       -0.14370993 0.033889387 -0.035241686 0.12924643
000190 25 fa 35 bd cb 25 62 be 36 66 86 bd 73 54 01 3d
       -0.04442801 -0.2208473 -0.06562464 0.031574678
0001a0 6e fe 81 bd ce e6 3d be 6d 55 08 3c bc 2e f1 3d
       -0.06347357 -0.18545076 0.008321148 0.11776492
0001b0 aa 31 d6 3d 15 6e d5 bc b2 de bb bd 41 97 25 3e
       0.104586914 -0.026053468 -0.09173335 0.1617098
0001c0 01 03 74 3d 27 e7 2f 3e bc b9 ab 3d 9e 30 23 3d
       0.059573177 0.17178021 0.083850354 0.039841287
0001d0 ca 6a 35 be 92 3e ef 3a e0 22 7e 3e 8e d5 d3 3e
       -0.17716518 0.00182529 0.24817991 0.41373867
0001e0 52 e7 c6 3e 79 eb 5c bd e9 fe ab bd 80 84 b0 3c
       0.38848358 -0.0539355 -0.0839823 0.021547556
0001f0 8e af bf 3c 12 20 d3 bc e2 f6 3b be 66 03 7b be
       0.02339914 -0.025772128 -0.18355897 -0.24513015
000200 06 2b 25 3d a0 e0 2e bc 7f 60 b6 3d 9d a1 83 3b
       0.040324233 -0.010673672 0.08905124 0.0040170685
000210 40 10 b5 bd 40 b1 2e be 5f c8 dc bd 15 73 26 be
       -0.0884099 -0.17059803 -0.10780405 -0.16254838
000220 b0 ad 88 ba f2 f3 a8 3d 9d 5d 5d bd 9c 95 0f be
       -0.001042774 0.08249654 -0.054044355 -0.14021915
000230 2f 7d 8f 3d b5 10 2d 3e 49 3b 2c 3e 75 59 8e bc
       0.07006299 0.16900904 0.1681949 -0.01737664
000240 0d 42 d4 3d 41 79 70 3d 48 42 71 3b af 4d 89 3d
       0.10364161 0.058709387 0.0036813188 0.0670427
000250 5d 8b a4 3d cd 0e da bb e6 70 8f bc 41 21 40 3d
       0.08034394 -0.0066545964 -0.017509889 0.046906713
000260 f2 f2 04 3e 5b 8b b1 3e 18 4d a6 bc 3f 80 67 3e
       0.12983301 0.34676632 -0.020300433 0.22607516
000270 9a e4 54 3d 7c b0 21 be 5c 3b 6c be fe 6d 79 be
       0.051975824 -0.1578998 -0.23069519 -0.24358365
000280 da a4 e9 3d 0f 96 a3 bc 3f a9 ea bd 45 c2 b1 be
       0.11408396 -0.019969014 -0.114580624 -0.34718528
000290 db 3d 10 bf bd fa ff 3d 76 e7 2c 3e 88 8c b8 3d
       -0.56344384 0.124989964 0.1688517 0.09011179
0002a0 21 08 2b be 97 f0 de be 63 d6 22 3e 1c 99 9b 3e
       -0.1670232 -0.4354293 0.15902095 0.3039025
0002b0 1c fc 22 3e 7c db b5 3e 63 aa 60 3e 3c 09 b0 3e
       0.15916485 0.35519016 0.21939997 0.34382045
0002c0 97 19 fe 3d bd 53 2d 3d 76 df 60 be 75 4c c2 bd
       0.124072246 0.042316187 -0.21960244 -0.09487239
0002d0 f8 95 65 3e 23 9a c4 3d 3a ef 76 3e 5c 73 8f 3d
       0.2242049 0.09599712 0.24114695 0.07004425
0002e0 fe fc 52 be 0e 51 4a 3e a0 f6 0d 3e d9 6a b4 3d
       -0.20604321 0.19757482 0.13863611 0.08809442
0002f0 86 ea c2 3d c8 ff 3e 3c 21 ec c3 bd fe 2f a4 be
       0.09517388 0.011657663 -0.095665224 -0.32067865
000300 e5 d5 a2 bd 6a af ab bd 96 ef 2a 3e e9 d1 67 3d
       -0.079509534 -0.08383067 0.16692957 0.05659667
000310 fb 6c 2d bc bd 70 ef bd 01 b0 60 be 29 b3 f8 bd
       -0.010585065 -0.11691425 -0.2194214 -0.12143547
000320 8c 39 f3 3a 6f 8c 02 be 96 54 d5 bd 89 32 b1 3c
       0.0018556579 -0.12748884 -0.10416524 0.021630542
000330 8d 4e b0 3d a6 66 20 3c ba 84 2a 3d c3 34 bd 3a
       0.08608732 0.009790098 0.041630484 0.001443528
000340 58 57 cb bd 4e 7c 06 bd e6 64 d5 bd 61 3b b4 bd
       -0.09928769 -0.03283339 -0.104196355 -0.08800388
000350 b9 e5 aa 3d fd 3d 5f 3e ed cc 0c 3e 60 20 a8 3d
       0.08344597 0.2180099 0.13750048 0.082093
000360 9e 02 c4 bd 60 ce 9b 3d cc da a0 bd 60 57 f4 3d
       -0.09570812 0.07607722 -0.07854232 0.11930728
000370 eb 66 67 3e 08 a5 6a 3c 59 72 e7 bd a7 73 a7 be
       0.22597854 0.014321573 -0.11301107 -0.32705423
000380 7a 8b 9d 3d ba 19 c9 bd 9e ac d8 bc 3c ef 2b be
       0.07692619 -0.0981936 -0.026449498 -0.1679048
000390 19 55 e9 bd 20 40 12 3c b3 d4 03 be 1f 55 14 be
       -0.11393184 0.008926421 -0.12874107 -0.14485596
0003a0 7a b1 06 be d5 36 10 3e 49 59 ec 3d 3c 9f 81 bd
       -0.1315364 0.14083417 0.11540467 -0.063292
0003b0 c2 8e 94 3d 1c 47 81 3d df fc 51 3c 8f 6e eb bd
       0.072537914 0.06312391 0.012816637 -0.11495697
0003c0 96 a3 04 3e 9b 77 85 3d 0f 74 df 3d c0 bf 0f be
       0.12953028 0.065169536 0.10910808 -0.1403799
0003d0 eb f7 10 be 6a f9 73 3e dd e0 2a 3e 7c 64 35 be
       -0.14157073 0.23825613 0.16687341 -0.17714113
0003e0 9d 6f 93 bd 7f 9b d2 be ff 7c f5 bd a3 29 1f bc
       -0.07199023 -0.4113426 -0.11986732 -0.009714517
0003f0 11 12 7a be 1d bb 1d be d4 e4 6d 3d 31 1d 01 be
       -0.24420954 -0.1540341 0.058079556 -0.12608792

bias f4 [12]
000000 cd 6f a1 3e fd 11 9b 3d 3b 13 b2 3c 38 8b 82 3a
       0.3153061 0.0757179 0.021737685 0.0009959703
000010 3f 2b a8 be 5c 86 f8 3d b4 89 73 be ee 78 a6 bd
       -0.32845494 0.12135002 -0.23782998 -0.08128534
000020 7b 05 e0 bd 92 df d9 bd 38 35 04 bc c0 4b ae bc
       -0.10938545 -0.10638346 -0.008069329 -0.021276355

weight f4 [10, 192]
000000 66 fd 8c bd 66 1e af bd bf 82 30 3d 78 9e 31 bb
       -0.068842694 -0.0855072 0.04309344 -0.0027102511
000010 42 a8 9d 3e 1d cf 40 3d 16 a9 cc 3d 39 d5 32 be
       0.30792433 0.04707252 0.09993188 -0.1746415
000020 38 30 04 3e 44 df 2c 3e 38 8e c0 bd 9a 16 e4 bd
       0.12909019 0.16882044 -0.09402126 -0.111371234
000030 0d d5 65 3e 2e fb 8e 3d 7e 80 33 3a ae 29 8b be
       0.22444554 0.069815025 0.0006847455 -0.27180237
000040 01 62 c4 bb 1b 0f 54 3c b7 f6 ef 3c c5 58 97 3d
       -0.0059931283 0.012943055 0.029292447 0.07389978
000050 e4 c6 75 be 06 cd 24 be 01 cc a9 3d 87 45 c2 ba
       -0.24001652 -0.16093835 0.08290864 -0.0014821746
000060 86 df ce bb 2a be 8f 3d 2a ab 1b 3d 0a 12 b2 be
       -0.006313267 0.07018693 0.03800503 -0.34779388
000070 ff 23 80 3e 5c cb bf 3d ee 44 0a be 86 b4 7b be
       0.25027463 0.093649596 -0.13502857 -0.24580583
000080 4b 5c ad bc 60 45 f5 bd 3b 6e da bd 20 46 cd 3d
       -0.021162173 -0.11976123 -0.10665556 0.10023141
000090 83 28 e8 3b 63 3d bf 3c b1 f2 da bd bd ea 91 bd
       0.0070849075 0.023344701 -0.10690821 -0.07124851
0000a0 4f ef 2b 3e 76 54 7d be 97 13 26 3e bc 17 ac 3d
       0.16790508 -0.2473925 0.1621841 0.084029645
0000b0 4b 7b 07 be fb d8 41 be c7 f5 08 3e ef bd 46 3e
       -0.13230626 -0.18930428 0.13375007 0.19408391
0000c0 65 96 8a 3d 89 3b 2f be fa dc 9d bc 84 b0 f6 bd
       0.06766967 -0.17112555 -0.019270409 -0.120453864
0000d0 9c dc 09 3c 99 c5 4d 3d 18 9c c2 bd 82 38 9a 3d
       0.008414414 0.050237272 -0.09502429 0.07530309
0000e0 56 47 b5 3a fd ca b8 bd 31 65 a5 3d 76 9a 30 be
       0.0013830464 -0.09023092 0.08075941 -0.17246422
0000f0 fe a9 57 bc 25 9a 83 be 2f db 2e 3e d9 5f fa 3d
       -0.013163088 -0.2570354 0.170758 0.12225313
000100 03 bf a3 be 1b ff 03 be ce 80 23 3e 7a 2e dd 3e
       -0.31981668 -0.12890284 0.15967104 0.4319952
000110 2d 77 d3 bc 93 7d b8 bd d4 37 9c bc 00 19 a7 3d
       -0.025813663 -0.090083264 -0.01906959 0.08159065
000120 5a ac 2a 3e a7 82 04 bc ac 11 85 be 96 fd 3c bd
       0.1666731 -0.008087791 -0.25990045 -0.046140276
000130 2a bb e2 3d b9 46 94 3c b9 9a a3 bd 80 3c 03 bc
       0.11070855 0.01810013 -0.079884954 -0.00801003
000140 f1 d1 05 be bf fb c2 bd 92 92 30 be ac 06 cd 3d
       -0.13068368 -0.09520673 -0.17243412 0.10011038
000150 fe 11 32 3d 90 78 b3 3d 04 88 8a 3d 3e 3a 9f 3d
       0.04347419 0.0876323 0.06764224 0.07774781
000160 9c 78 04 3e 65 8c 69 3c e9 85 1e 3e 25 af a3 3d
       0.12936634 0.014254664 0.1548077 0.079923905
000170 1a 66 77 3e 7d 8d 4d 3d 65 79 a3 be 3a 1d 1c bf
       0.24160042 0.050183762 -0.31928554 -0.60982096
000180 c3 3d 13 3d 03 4d 66 3d ae c7 dd 3b 89 56 75 be
       0.035947572 0.056225788 0.0067681884 -0.23958792
000190 68 fc 31 bd 76 90 f6 bb 24 df 8b be 75 ed 8d be
       -0.043453604 -0.0075245453 -0.2731868 -0.27720228
0001a0 72 de 2d be b3 76 ca 3b 8b bb f3 bc c4 aa 4d 3e
       -0.16979387 0.006178701 -0.029752513 0.20084673
0001b0 ce 69 da bd 34 ff c4 bc ac ea 05 3e 35 09 cd 3d
       -0.10664712 -0.024047472 0.13077801 0.10011522
0001c0 a2 4a ce bb 88 c2 f3 bc 54 35 ab bd 2d 4a a0 be
       -0.006295518 -0.029755846 -0.08359781 -0.31306592
0001d0 0d 06 20 bc 2e c5 a5 3d d0 94 de bc 17 c8 bc 3c
       -0.009767068 0.0809425 -0.027170569 0.023044629
0001e0 b0 8e c8 3d 7b 1c ab 3d 77 86 7e bd db 70 f4 3d
       0.097928405 0.083550416 -0.062139954 0.11935588
0001f0 48 67 c6 bb a6 8b 08 bf 89 dc 19 3d 15 6b 1d bd
       -0.0060547926 -0.53338087 0.037563834 -0.0384322
000200 d8 17 02 be 5f 7b cf bd d3 44 d8 bc 65 00 21 3e
       -0.12704408 -0.10130953 -0.026400005 0.15722807
000210 e4 86 bc be 18 2f 94 be f5 d6 7e be 78 59 a5 be
       -0.36821663 -0.2894218 -0.24886687 -0.32294822
000220 dc 05 ff bb df e2 92 bd 90 69 17 3e ef b8 4e be
       -0.007782681 -0.071721785 0.14786363 -0.20187734
000230 c1 33 32 3c 7d 06 c1 ba 4e 0e 3d 3d 94 ec 1b be
       0.010876597 -0.0014726665 0.04615622 -0.15226966
000240 62 ee 23 b7 c3 78 57 be b6 98 a3 3d 93 aa 6f 3e
       -9.77106e-06 -0.2104216 0.07988112 0.23404913
000250 19 d3 2d 3e 19 2e d9 bd c9 e8 aa bd 4c f1 2b 3e
       0.16975059 -0.106044956 -0.083451815 0.16791266
000260 78 7f 87 bc c2 3f e4 bc 1b a2 0c 3e 78 df 3e bd
       -0.016540274 -0.027862433 0.13733713 -0.046599835
000270 ac e6 70 be c8 35 f0 bd bc c5 ec 3d 87 a5 56 bd
       -0.23525494 -0.11729008 0.11561152 -0.052403953
000280 7c f4 53 bd be 12 63 be d3 a1 0e be 94 00 41 be
       -0.05174683 -0.22175118 -0.13928919 -0.18847877
000290 83 c5 81 bd 12 7c 2c be da 9a 33 be c2 91 d4 3d
       -0.063365005 -0.16844204 -0.1753954 0.103793636
0002a0 a8 6f 04 bf 51 49 67 be d5 af ce bd c2 fc 1a 3e
       -0.51732874 -0.22586562 -0.10092131 0.15135482
0002b0 37 68 d2 3b c6 a0 3d be b5 b9 1a be 2e c7 f2 3d
       0.006421115 -0.18518361 -0.15109904 0.11854397
0002c0 de c3 68 3d 75 45 ab bd b1 1f 00 3c b6 0d eb 3d
       0.05682742 -0.08362857 0.007820056 0.114772245
0002d0 4d 03 0e bb c9 f9 85 3b 1c 98 63 3d 7b c5 56 3d
       -0.0021669448 0.0040886146 0.055564985 0.052434426
0002e0 e1 88 9b 3d b5 5d c5 bd a0 58 09 3e 5f fd 6e be
       0.07594467 -0.09637014 0.13412714 -0.23338841
0002f0 ac f9 3e be 8e 3e 69 bb 66 02 9f 3d b3 d5 e2 3c
       -0.1864993 -0.0035590264 0.07764129 0.02768979
000300 3f bd 81 be 99 46 77 bd 35 9e 0c be 78 7e 06 bd
       -0.25339696 -0.06037006 -0.13732226 -0.032835454
000310 62 6c 2b 3b 21 0c 88 3c 7c eb 1c 3d b4 64 ab bd
       0.002615713 0.016607346 0.038310513 -0.08368817
000320 18 11 92 bd 8b f4 8b 3d 75 d6 37 be 82 d2 0f be
       -0.071321666 0.06833752 -0.17952903 -0.14045146
000330 f8 0b 45 be f5 60 21 be af 4f 7d be 33 e5 b3 be
       -0.19242847 -0.15759642 -0.24737428 -0.35135803
000340 0b af 02 3e 85 78 1b be e9 d0 81 bd be e7 03 bd
       0.12762086 -0.15182693 -0.063386746 -0.03220343
000350 0a 53 13 3e 95 89 0a 3e 98 42 c1 bc 69 8d 5c bd
       0.14387146 0.13529046 -0.023591325 -0.053845797
000360 c4 f8 13 3e 01 6b d1 bc 94 f0 3e be df 41 2a bd
       0.14450365 -0.025563719 -0.18646461 -0.041566726
000370 08 5a 4f be 3f 20 1a be cc bb 2a be 36 ac 01 3e
       -0.20249188 -0.15051363 -0.16673201 0.1266335
000380 da 67 5c be b8 ea 43 3d 4c 7d 30 bd d6 ed c0 3d
       -0.21523991 0.047831267 -0.043088242 0.094203636
000390 7b 66 11 be 96 f4 e9 bd fd 38 61 3a 78 53 6d 3e
       -0.1419925 -0.11423604 0.0008591561 0.23176372
0003a0 e4 ee be 3c ce 71 1f 3e f9 ba e2 3c 81 15 99 3e
       0.023307271 0.15570757 0.027677046 0.2989922
0003b0 a6 ba a7 3c b4 20 c7 3d f7 89 98 be b8 ea 33 bf
       0.020474743 0.097230345 -0.2979276 -0.7028003
0003c0 30 6e 13 3d fa 42 79 bd 68 b1 10 3e b8 02 24 be
       0.035993755 -0.06085489 0.14130175 -0.16016662
0003d0 61 63 e4 3d e3 35 0c 3e 9d 84 81 3c 66 d9 98 3c
       0.111517675 0.13692431 0.015810305 0.018658351
0003e0 10 2c 0c 3e 8b b0 72 3d 3f e2 20 be 54 f3 46 be
       0.13688684 0.059250396 -0.15711306 -0.1942876
0003f0 b0 29 dd bc 8a f4 95 3d fd fd b3 bd 2a 44 3b be
       -0.026997417 0.07322033 -0.08788679 -0.18287721

bias f4 [10]
000000 4d e7 a8 3d 5b b8 0b 3f 2f 91 6d be 5b 9b 60 be
       0.08247242 0.5457818 -0.23199914 -0.21934263
000010 39 e7 4b be 36 03 93 3e 97 35 e7 3c 57 b1 31 3d
       -0.19912423 0.28713387 0.028223796 0.043382015
000020 b0 1f bd be 17 d5 1b 3e
       -0.36938238 0.15218006
