HE-ML/LeNet1.pt (torch, 17125 bytes, 6 tensors)

weight f4 [4, 1, 5, 5]
0.17024796 0.2291303 0.309151 -0.61334836 -1.1471922 0.08255664 0.27020547 0.106159955
-1.0250131 -0.8400564 0.15891497 0.054829035 0.2903191 -1.7342168 -0.16768347 0.033165757
0.079584636 -0.31727618 -1.4251381 0.1652153 0.4354355 0.21717429 -0.6611514 -0.7074419
0.0590266 0.40576562 0.26869094 0.28408274 0.27747038 0.18866588 0.59458166 0.3444382
0.3731113 0.07128354 0.3228605 0.20419154 -0.020800281 -0.2535568 0.0430365 0.12454432
-0.783829 -1.1443899 -1.0454735 -1.1156714 -0.7940715 -0.48094204 -0.58189803 -0.8681794
-0.62620765 -0.39569485 -0.63587266 -0.044919018 0.284351 0.62457013 0.7746437 -0.54714274
-0.21954186 -0.0026028699 0.06559386 0.24654838 -0.20854923 -0.22574107 -0.7235332 -0.83577096
-0.7529761 -0.037631724 0.19040576 -0.22072887 -0.7369471 -0.751456 0.29511467 0.30868158
0.27772567 0.4248202 -0.0007780979 0.12173384 -0.23483892 -0.40363836 -0.4259146 -0.5477488
0.27959168 -0.13205276 -0.46044415 -0.4606966 -0.48063612 -0.31251144 -0.6188417 -0.4109953
-0.25696355 -0.1342217 -0.07718038 -0.13165697 0.21066235 0.14972442 0.4178402 0.6147575
0.6616282 0.82769966 0.52714884 0.38650385
00000000: 7b55 2e3e 22a1 6a3e 0a49 9e3e 6604 1dbf
00000010: 32d7 92bf 7513 a93d 5f58 8a3e 646a d93d
00000020: a133 83bf f00d 57bf 9bba 223e 6994 603d
00000030: b4a4 943e d1fa ddbf 37b5 2bbe d1d8 073d
00000040: 45fd a23d 0672 a2be ed6a b6bf 332e 293e
00000050: 67f1 de3e f062 5e3e 3841 29bf ea1a 35bf
00000060: e0c5 713d 83c0 cf3e dc91 893e 4b73 913e
00000070: 9910 8e3e a131 413e 8136 183f 345a b03e
00000080: 7208 bf3e 1bfd 913d f94d a53e 9617 513e
00000090: 5a65 aabc 32d2 81be 0b47 303d 1811 ff3d
000000a0: 04a9 48bf 5e7b 92bf 13d2 85bf 52ce 8ebf
000000b0: 4548 4bbf 093e f6be 45f7 14bf 0141 5ebf
000000c0: 254f 20bf 8498 cabe 8dc8 22bf 01fd 37bd
000000d0: 7496 913e d4e3 1f3f 0d4f 463f 8c11 0cbf
000000e0: 95cf 60be e994 2abb 1356 863d 2e77 7c3e
000000f0: ee8d 55be ab28 67be 7939 39bf 16f5 55bf
00000100: 0bc3 40bf b923 1abd baf9 423e c006 62be
00000110: 91a8 3cbf 6c5f 40bf 4519 973e 830b 9e3e
00000120: 0f32 8e3e 0982 d93e 44f9 4bba 974f f93d
00000130: 9d79 70be b0a9 cebe 7a11 dabe 4439 0cbf
00000140: a426 8f3e d738 07be 56bf ebbe 6de0 ebbe
00000150: f015 f6be 8001 a0be 696c 1ebf fa6d d2be
00000160: ba90 83be 6a71 09be bf10 9ebd 16d1 06be
00000170: dfb7 573e 5c51 193e 27ef d53e bf60 1d3f
00000180: 7760 293f 20e4 533f 3af3 063f d5e3 c53e

bias f4 [4]
0.28086767 0.1912249 0.11068037 0.2496054
00000000: e3cd 8f3e 76d0 433e 64ac e23d 8f98 7f3e

weight f4 [12, 4, 5, 5]
-0.41367587 -0.5946607 -0.7184893 -0.9739276 -0.80122274 -0.1314605 -0.2605451 -0.35323593
-0.6133978 -0.3522242 0.18609415 -0.09468629 -0.051442668 -0.125906 0.061160963 -0.29200396
-0.060669344 -0.06726915 -0.009116325 0.11260183 -0.28014094 -0.15980932 -0.17408358 -0.0471069
0.38004953 -0.060372036 0.27448383 0.20411792 -0.11700409 0.15645862 0.09324907 0.011673145
-0.1687243 -0.011063937 0.2788679 -0.30610082 -0.5882117 -0.3085721 0.16436926 0.13421956
-0.62904626 -0.1496991 0.2045337 0.084240824 -0.1361901 -0.20312895 0.26588076 0.37954533
-0.017733198 0.115181394 -0.03262716 0.14070529 0.27652532 0.35514736 0.44944257 0.14466645
0.21201675 0.17463854 0.1615408 0.22039099 0.12745471 -0.12846735 0.10197784 0.091931395
-0.0022161067 0.33117527 0.4174793 0.1965326 0.09178693 0.06672389 0.36359605 0.53300434
0.16042879 0.1341095 0.123121895 -0.119427 -0.017649908 0.022377707 -0.08714476 -0.04041176
-0.44745618 0.015658963 0.03413916 -0.32347056 -0.26281208 -0.01710567 0.24176334 0.1660019
0.008266666 0.26876098 0.586085 -0.070715964 0.10738927 0.5629356 0.39896274 0.0011381113
0.16245045 0.44843543 0.24410723 0.19942379 0.3176866 0.17325057 0.1704352 0.33351672
0.005622828 0.13895759 0.52609915 0.52004266 0.4873549 0.19912034 -0.30036202 0.22815955
0.24645175 0.080941655 -0.10856378 -0.46920964 -0.31081635 -0.4761477 -0.36550525 -0.17264347
-0.43243608 -0.50749314 -0.55713814 -0.49113557 -0.61784935 0.11737756 0.11767351 0.5607142
0.4265148 0.15448165 -0.59020674 -0.04615627 0.13060123 0.10075871 0.08373362 -0.35563868
-0.0008415293 -0.2521693 -0.42570093 -0.20840587 -0.072085015 -0.23232768 -0.30195993 -0.01961985
-0.20250167 0.2056546 0.09799971 -0.16133614 -0.13883948 -0.508645 0.5461833 0.3611695
-0.14147148 -0.29160798 -0.19245605 0.31557584 0.13261847 -0.08433654 0.07123009 0.12432624
-0.11191563 -0.12192379 -0.037486713 0.025669914 0.011588098 0.15127887 0.04546991 0.10015548
0.15312132 0.13650475 0.12720789 0.10864807 0.20351666 0.5103821 0.19143373 0.58086246
-0.37159494 -0.54367125 -0.23813352 -0.48509124 0.7802428 0.4000346 0.17162322 -0.10298052
-0.19007923 0.41170081 0.24585375 0.29955214 0.48329395 0.36169374 0.22089383 0.1781429
0.0594897 -0.26618907 -0.1410412 -0.15940456 -0.12786542 -0.018475099 0.07192516 0.2163291
0.079895176 -0.18580437 0.016593779 0.055931963 0.07375223 0.018651314 -0.23145026 0.09212769
-0.0037202497 0.021242268 -0.0634578 -0.2067752 0.21344672 -0.008978278 0.15273431 0.082380965
-0.08585398 0.053141464 0.014956435 0.2312503 0.03175087 0.09711079 0.19576451 0.53305477
0.4633885 0.14192149 -0.29863045 0.06455939 0.56822133 0.15543477 -0.41405424 -0.259566
0.10236313 0.73774654 -0.10098802 -0.564297 -0.05814553 0.3935917 0.38737795 -0.43111235
-0.39563808 0.28565127 0.5102726 -0.051430278 -0.24639454 0.20430095 0.40221766 0.41968423
0.23268822 -0.14198248 -0.3385331 -0.55665237 -0.10772386 0.19192182 0.14539237 -0.9414642
00000000: 53cd d3be af3b 18bf eaee 37bf 5253 79bf
00000010: ef1c 4dbf 959d 06be 2b66 85be 57db b4be
00000020: a307 1dbf bb56 b4be 778f 3e3e e3ea c1bd
00000030: 8cb5 52bd 81ed 00be eb83 7a3d 8b81 95be
00000040: 6b80 78bd 68c4 89bd a35c 15bc ca9b e63d
00000050: a26e 8fbe 0ea5 23be f742 32be 2af3 40bd
00000060: da95 c23e ab48 77bd 2589 8c3e 4a04 513e
00000070: d79f efbd b036 203e 5ef9 be3d b840 3f3c
00000080: 10c6 2cbe 8445 35bc c6c7 8e3e 3fb9 9cbe
00000090: 0b95 16bf 2afd 9dbe 6a50 283e da70 093e
000000a0: 2d09 21bf b94a 19be 4871 513e 7486 ac3d
000000b0: 6b75 0bbe 0901 50be 8621 883e c453 c23e
000000c0: 3645 91bc 39e4 eb3d 0fa4 05bd 0c15 103e
000000d0: ba94 8d3e e0d5 b53e 561d e63e 7123 143e
000000e0: eb1a 593e 72d4 323e f46a 253e 2dae 613e
000000f0: 7d83 023e f28c 03be c2d9 d03d 8746 bc3d
00000100: 1a3c 11bb ce8f a93e d9bf d53e d83f 493e
00000110: c9fa bb3d 89a6 883d 4329 ba3e f972 083f
00000120: 7247 243e 0054 093e 5527 fc3d 2596 f4bd
00000130: 8a96 90bc 7451 b73c f478 b2bd cd86 25bd
00000140: fa18 e5be 3a47 803c 81d5 0b3d ef9d a5be
00000150: 4e8f 86be 3121 8cbc cf90 773e 67fc 293e
00000160: e970 073c 0a9b 893e ab09 163f 88d3 90bd
00000170: e8ee db3d 8c1c 103f d844 cc3e ae2c 953a
00000180: 6959 263e 5499 e53e 3ff7 793e c035 4c3e
00000190: d1a7 a23e 9968 313e 9186 2e3e b4c2 aa3e
000001a0: b33f b83b e64a 0e3e 6fae 063f 8421 053f
000001b0: 9586 f93e 34e6 4b3e 0dc9 99be a8a2 693e
000001c0: d95d 7c3e bdc4 a53d b056 debd 3f3c f0be
000001d0: 5223 9fbe a2c9 f3be 8123 bbbe 73c9 30be
000001e0: 4368 ddbe 12eb 01bf 9ba0 0ebf 1f76 fbbe
000001f0: 602b 1ebf a563 f03d cffe f03d f78a 0f3f
00000200: 2660 da3e 7030 1e3e ca17 17bf 5b0e 3dbd
00000210: 54bc 053e 955a ce3d 887c ab3d 4616 b6be
00000220: 139a 5cba 561c 81be 79f5 d9be 5968 55be
00000230: 4fa1 93bd 4fe7 6dbe 7e9a 9abe cfb9 a0bc
00000240: 995c 4fbe 1f97 523e 12b4 c83d 4d35 25be
00000250: f02b 0ebe 8f36 02bf abd2 0b3f 35eb b83e
00000260: e6dd 10be a44d 95be 3313 45be 2893 a13e
00000270: 23cd 073e a3b8 acbd 15e1 913d c19e fe3d
00000280: 0634 e5bd 2eb3 f9bd ab8b 19bd b649 d23c
00000290: 01dc 3d3c d9e8 1a3e a83e 3a3d 511e cd3d
000002a0: d6cb 1c3e e7c7 0b3e c942 023e e182 de3d
000002b0: ac66 503e 67a8 023f 3407 443e 67b3 143f
000002c0: b141 bebe 0a2e 0bbf 46d9 73be e15d f8be
000002d0: febd 473f 56d1 cc3e ffbd 2f3e 73e7 d2bd
000002e0: 21a4 42be 73ca d23e 16c1 7b3e e65e 993e
000002f0: 4e72 f73e ec2f b93e fe31 623e 186b 363e
00000300: 79ab 733d ef49 88be 1b6d 10be f33a 23be
00000310: 27ef 02be 1759 97bc 804d 933d 6085 5d3e
00000320: 15a0 a33d 8043 3ebe adef 873c ea18 653d
00000330: 690b 973d a4ca 983c 4c01 6dbe 71ad bc3d
00000340: 6fcf 73bb 4404 ae3c 2af6 81bd e1bc 53be
00000350: c791 5a3e a119 13bc 6266 1c3e 5ab7 a83d
00000360: 36d4 afbd ddaa 593d d60b 753c e1cc 6c3e
00000370: 330d 023d 06e2 c63d 7e76 483e 4776 083f
00000380: 4241 ed3e de53 113e 17e6 98be b737 843d
00000390: f476 113f 4b2a 1f3e ebfe d3be d6e5 84be
000003a0: c3a3 d13d f5dc 3c3f cfd2 cebd c575 10bf
000003b0: 022a 6ebd da84 c93e 6756 c63e c2ba dcbe
000003c0: 1391 cabe e240 923e 3aa1 023f 8ea8 52bd
000003d0: da4e 7cbe 4534 513e 79ef cd3e dae0 d63e
000003e0: d245 6e3e db63 11be 3654 adbe c580 0ebf
000003f0: 549e dcbd 2787 443e bde1 143e cc03 71bf

bias f4 [12]
-0.107605286 -0.02364392 0.45506054 0.22091262 0.07269179 0.22568828 0.13651381 -0.3946581
-0.19469832 0.33809134 -0.08342172 0.4427875
00000000: 2960 dcbd e5b0 c1bc b2fd e83e eb36 623e
00000010: 6fdf 943d d41a 673e 47ca 0b3e a010 cabe
00000020: ff5e 47be 4f1a ad3e 02d9 aabd 0bb5 e23e

weight f4 [10, 192]
-0.15659054 -0.14893475 -0.11943444 -0.031421572 -0.010523602 -0.20428303 -0.17415804 0.01702081
-0.1201478 -0.117937714 0.04326968 0.1413956 -0.2274905 -0.11405722 0.47697157 0.57603353
-0.017096398 -0.107912324 -0.11113859 0.10703404 -0.20628184 -0.38455212 -0.50353515 -0.42317557
0.3877808 0.51016086 -0.15634052 -0.49602252 0.22746116 0.5079737 0.046191316 -0.48616585
0.06409356 0.20155309 0.19251072 -0.023364974 0.3432226 0.33801636 0.24683441 -0.39570186
0.70843 0.6786632 -0.46398503 -0.74873644 0.4163881 0.43723282 -0.26068994 -0.46657443
0.21087196 -0.019252999 -0.35301742 -0.10099567 -0.2029976 -0.010675817 -0.054927 -0.35378617
-0.21886073 0.24548908 0.18135823 -0.37130222 0.028817782 0.61046535 0.40488037 -0.03912906
-0.07381712 0.068591185 0.04865185 -0.27282545 -0.574327 0.05017574 -0.4403009 -0.382478
-0.39358887 -0.39405096 -0.391554 -0.5755434 -0.36304373 -0.57274747 0.17528178 0.27571857
0.30536667 0.13547263 -0.4976609 -0.3627092 0.6364072 0.38997692 -0.35971856 -0.34210932
0.057198808 0.4496306 0.5930767 -0.07945622 -0.03775523 -0.09890582 -0.09222606 -0.17300059
-0.41827488 -0.26440528 -0.19682534 -0.0383174 0.23483692 0.34822527 0.5129284 0.3546808
0.2933095 0.5271831 0.1352904 0.2679074 0.4050411 -0.06772643 -0.13087039 0.18594404
0.12271284 -0.23027007 -0.28820702 0.3594582 0.21906213 -0.1685151 -0.020710628 0.26835755
0.38353634 0.20016995 0.375502 0.20845325 0.15333143 0.49544346 0.12285438 -0.3726316
-0.19329801 -0.002989707 0.3985315 0.5423186 0.43758786 0.19079973 0.1120032 0.721619
0.012195159 -0.05307644 -0.10092877 -0.21424617 0.12769201 -0.15598215 -0.7995375 -0.45414385
-0.1807199 -0.15895326 0.021837972 -0.093906775 0.011100111 0.2537027 -0.34637275 0.2922396
0.5793707 0.037888426 -0.42089325 0.13588485 0.22225472 -0.1580398 0.0023021244 0.016662842
-0.23212801 -0.013475009 -0.0025947106 -0.459589 -0.61873585 0.24917974 -0.36459646 -0.26531106
-0.056184623 0.514913 0.12694494 0.070214905 0.2164157 0.72476155 0.18184431 -0.1298409
0.06385468 0.27159718 -0.1275848 -0.56849134 0.18760148 0.29462078 -0.11809919 0.031492546
-0.17574075 -0.26767007 -0.38228112 -0.3622833 -0.0032188408 -0.07951531 0.13196369 0.08249513
-0.43927467 -0.49791458 -0.66739213 -0.2742802 0.1982401 -0.47701895 -0.73101497 -0.51634884
-0.02617281 -0.18227765 -0.49672985 -0.3719615 -0.19810365 0.2134764 -0.96592724 -0.16660811
-0.07484931 0.3698003 0.26956388 -0.8320485 -0.021459008 -0.35864258 -0.55515224 -0.110442236
0.091253355 -0.060616612 -0.5330272 0.22058932 0.44013423 -0.7208626 -0.2177752 0.2963839
-0.0031901628 0.007770634 0.43467075 -0.05481533 0.10473585 -0.06579337 0.21281259 0.1761039
-0.24092557 -0.08804273 -0.1885931 0.33102587 0.14205031 -0.03742361 -0.036924493 0.24388929
-0.04199461 -0.25670883 -0.6804479 -0.22290906 0.10685436 -0.25357777 -0.20453148 0.041393284
0.45636877 0.15425783 0.008996986 -0.23121843 0.39487308 -0.48830009 0.014239946 0.35904783
00000000: 4559 20be 5a82 18be 0b9a f4bd e8b3 00bd
00000010: 306b 2cbc 922f 51be 7c56 32be 3a6f 8b3c
00000020: 0d10 f6bd 5489 f1bd 8c3b 313d 02ca 103e
00000030: 45f3 68be d596 e9bd 9e35 f43e ef76 133f
00000040: bf0d 8cbc 2301 ddbd a19c e3bd aa34 db3d
00000050: 8c3b 53be 04e4 c4be aee7 00bf 78aa d8be
00000060: 348b c63e e799 023f bb17 20be aaf6 fdbe
00000070: 94eb 683e 900a 023f 1b33 3d3d bbea f8be
00000080: 7c43 833d ef63 4e3e 8821 453e e767 bfbc
00000090: dfba af3e 7b10 ad3e 29c2 7c3e 6f99 cabe
000000a0: ab5b 353f dfbc 2d3f 728f edbe 31ad 3fbf
000000b0: d230 d53e fbdc df3e 2779 85be d8e2 eebe
000000c0: d2ee 573e 77b8 9dbc b3be b4be d1d6 cebd
000000d0: 9ade 4fbe 9fe9 2ebc 22fb 60bd 7623 b5be
000000e0: 071d 60be 7d61 7b3e f9b5 393e 531b bebe
000000f0: 4513 ec3c 7547 1c3f 7b4c cf3e cb45 20bd
00000100: 6e2d 97bd 8979 8c3d 2a47 473d c7af 8bbe
00000110: 1807 13bf 1485 4d3d 1f6f e1be 28d4 c3be
00000120: 7b84 c9be 0cc1 c9be c479 c8be d056 13bf
00000130: dee0 b9be 949f 12bf 117d 333e fc2a 8d3e
00000140: 0559 9c3e 56b9 0a3e 69cd febe 05b5 b9be
00000150: 95eb 223f 0eab c73e 082d b8be f428 afbe
00000160: 4c49 6a3d fb35 e63e e0d3 173f f1b9 a2bd
00000170: 3aa5 1abd 228f cabd 04e1 bcbd 1127 31be
00000180: 2028 d6be 2160 87be 958c 49be b5f2 1cbd
00000190: 1779 703e 954a b23e 474f 033f b998 b53e
000001a0: aa2c 963e 79f5 063f 9189 0a3e 292b 893e
000001b0: 8c61 cf3e 28b4 8abd e302 06be 1d68 3e3e
000001c0: df50 fb3d ebcb 6bbe df8f 93be e80a b83e
000001d0: d351 603e 398f 2cbe 56a9 a9bc 2966 893e
000001e0: e05e c43e 5af9 4c3e cc41 c03e c574 553e
000001f0: ea02 1d3e c4aa fd3e 149b fb3d 92c9 bebe
00000200: eaef 45be f6ee 43bb 520c cc3e 64d5 0a3f
00000210: 840b e03e 0161 433e ef61 e53d 06bc 383f
00000220: 34ce 473c ae66 59bd beb3 cebd 5963 5bbe
00000230: b2c1 023e c9b9 1fbe 7dae 4cbf 8b85 e8be
00000240: a30e 39be a5c4 22be 8ce5 b23c 3252 c0bd
00000250: 3ddd 353c 52e5 813e c557 b1be 6ea0 953e
00000260: a351 143f e530 1b3d 527f d7be 6625 0b3e
00000270: be96 633e 2fd5 21be 3ddf 163b 8380 883c
00000280: f7b2 6dbe 49c6 5cbc 050c 2abb 404f ebbe
00000290: 7965 1ebf f928 7f3e 63ac babe dad6 87be
000002a0: d921 66bd 57d1 033f dbfd 013e d5cc 8f3d
000002b0: 149c 5d3e f989 393f 6535 3a3e 03f5 04be
000002c0: 3ec6 823d c90e 8b3e 97a5 02be a688 11bf
000002d0: 9a1a 403e 89d8 963e fddd f1bd 54fe 003d
000002e0: 62f5 33be 0d0c 89be 5aba c3be 327d b9be
000002f0: 30f3 52bb ecd8 a2bd 7d21 073e 35f3 a83d
00000300: 9ce8 e0be a9ee febe 36da 2abf 746e 8cbe
00000310: 74ff 4a3e d43b f4be cc23 3bbf 702f 04bf
00000320: 5c68 d6bc fea6 3abe 6053 febe bd71 bebe
00000330: afdb 4abe 8f99 5a3e 0247 77bf 519b 2abe
00000340: 984a 99bd 7756 bd3e 4704 8a3e 2101 55bf
00000350: cdca afbc 00a0 b7be 751e 0ebf 8a2f e2bd
00000360: 0ae3 ba3d 2049 78bd 7874 08bf 2be2 613e
00000370: 4659 e13e 748a 38bf 7600 5fbe a1bf 973e
00000380: 0d12 51bb cda0 fe3b 2a8d de3e 0a86 60bd
00000390: c07f d63d adbe 86bd 8beb 593e 9554 343e
000003a0: 31b5 76be bf4f b4bd 8d1e 41be 397c a93e
000003b0: a375 113e 8049 19bd 233e 17bd 1dbe 793e
000003c0: 8a02 2cbd 576f 83be d531 2ebf 4642 64be
000003d0: 75d6 da3d f2d4 81be b370 51be 018c 293d
000003e0: 2ba9 e93e c4f5 1d3e 1868 133c 86c4 6cbe
000003f0: ce2c ca3e 7802 fabe aa4e 693c 1ed5 b73e

bias f4 [10]
-0.14080347 0.15064421 0.41161814 -0.118754335 -0.3693625 0.43259704 -0.39017707 0.35157636
-0.33679366 -0.27088222
00000000: c92e 10be 7a42 1a3e 9dbf d23e 7935 f3bd
00000010: 151d bdbe 5c7d dd3e 4ac5 c7be d101 b43e
00000020: 3870 acbe 13b1 8abe
