Experiments_MNIST/LeNet1.pt (torch, 17125 bytes, 6 tensors)

weight f4 [4, 1, 5, 5]
-0.032780048 -0.27533245 -0.6607304 -0.4622713 0.03393197 -0.012900357 -0.78753906 -0.86767936
-0.6271099 -0.007337664 -0.13540643 -0.5405206 -0.53781176 -0.010294758 0.31777427 0.029387575
0.012062027 0.23224086 0.5010684 0.5623103 0.72090065 0.69867176 0.91202116 0.37674245
0.19850294 -0.73769206 0.048021268 0.5966701 0.68168706 0.59267807 -0.17935976 0.18499024
0.7301041 0.8924584 0.9299617 -0.043475267 0.5754926 0.2317536 0.14303558 0.6036107
-0.024746956 0.014414822 -0.052276894 -0.24116379 0.013780536 -0.29970008 -0.46973428 -0.67533034
-0.5369394 -0.40428942 -0.31557453 0.21281235 0.75170773 0.8912875 0.3482197 -0.31477064
0.22576593 1.4467115 0.355026 -0.24421103 -0.1346934 0.8582103 1.0331478 -0.10593185
-0.293374 0.31063128 0.9820089 0.5593719 -0.11444273 -0.45360568 0.62231076 0.8675012
0.32155022 -0.18049945 -0.4592671 -0.24039944 -0.39122158 -0.52159864 -0.4465557 -0.16730604
0.44618306 0.24012081 -0.29474026 -0.15874489 -0.24655984 1.152361 0.8498801 0.7915215
0.25840083 0.265994 0.06284177 0.5654719 0.782488 0.833648 0.81356955 -0.33271694
-0.6987098 -0.47684935 -0.06458617 0.19129425
00000000: 5f44 06bd 60f8 8cbe a125 29bf d3ae ecbe
00000010: 40fc 0a3d 055c 53bc 299c 49bf 3c20 5ebf
00000020: 468a 20bf c970 f0bb fca7 0abe 8f5f 0abf
00000030: 08ae 09bf 58ab 28bc 4fb3 a23e 36be f03c
00000040: cf9f 453c 8cd0 6d3e 0546 003f 91f3 0f3f
00000050: f28c 383f 27dc 323f 387a 693f 63e4 c03e
00000060: 5b44 4b3e 63d9 3cbf f3b1 443d 5fbf 183f
00000070: 0b83 2e3f c0b9 173f 16aa 37be 156e 3d3e
00000080: 1ae8 3a3f 2778 643f f811 6e3f 1f13 32bd
00000090: 7c53 133f d150 6d3e eb77 123e 3b86 1a3f
000000a0: 21ba cabc 252c 6c3c 4c20 56bd a4f3 76be
000000b0: c2c7 613c 4a72 99be 0381 f0be 73e2 2cbf
000000c0: dc74 09bf 06ff cebe fc92 a1be 7beb 593e
000000d0: eb6f 403f 6b2b 643f da49 b23e 9e29 a1be
000000e0: 2f2f 673e d82d b93f f8c5 b53e 7512 7abe
000000f0: 11ed 09be acb3 5b3f 303e 843f ccf2 d8bd
00000100: 1e35 96be 100b 9f3e ef64 7b3f ff32 0f3f
00000110: f360 eabd 013f e8be c24f 1f3f 8f14 5e3f
00000120: 3ba2 a43e d9d4 38be 0f25 ebbe 452b 76be
00000130: 324e c8be 7d87 05bf f3a2 e4be 4652 2bbe
00000140: 1b72 e43e 3be2 753e 32e8 96be 058e 22be
00000150: 2f7a 7cbe 9180 933f be91 593f 27a1 4a3f
00000160: 1d4d 843e 5e30 883e 30b3 803d c4c2 103f
00000170: 2251 483f f569 553f 1846 503f e059 aabe
00000180: a5de 32bf 9925 f4be c145 84bd a4e2 433e

bias f4 [4]
-0.010163221 -0.44164124 -0.24355158 -0.119111724
00000000: a383 26bc cd1e e2be 9665 79be d9f0 f3bd

weight f4 [12, 4, 5, 5]
0.04462948 0.20382895 0.076564476 -0.111026034 -0.22426873 0.079330355 0.06996991 0.08226031
-0.14872096 -0.5209104 0.1650306 -0.33004937 0.18199033 -0.43868536 -0.3841683 -0.20465589
-0.53786755 0.35148615 -0.5252599 -0.3105127 -0.15441842 0.22926077 0.5801775 -0.21895958
-0.19932182 0.015285226 -0.22524406 -0.014406113 0.15075524 -0.2055932 -0.037817452 -0.12338161
-0.2491662 -0.0072943023 0.122299396 0.16208369 0.107819974 -0.06658818 0.12979276 0.3325648
0.23581372 0.13670565 -0.16945551 0.2029126 0.5681732 0.18861036 -0.27966717 -0.2963879
0.17846969 0.09572176 0.25709856 -0.0027542117 -0.10901887 -0.5790506 -0.5227406 -0.019928291
0.10565274 -0.2307762 -0.5023039 -0.5569602 -0.21996303 0.10658201 -0.40132624 -0.538756
-0.23970151 -0.29564223 -0.23394002 -0.70962554 -0.49119568 -0.037224635 -0.34402737 -0.39716017
-0.49124795 -0.013833048 0.11864905 0.32299146 0.06779567 -0.04134371 0.17291272 0.34952945
0.37818962 0.08345802 0.01897533 -0.023636347 0.5710037 0.27165446 0.09573448 0.1757185
-0.0019521305 0.7841983 0.38250777 0.11740783 0.12978953 0.27575675 0.51315355 0.68259007
0.22916193 -0.12711695 0.032205157 -0.048071593 0.09173043 0.3021476 0.0689009 0.10110139
-0.10497644 0.25550947 0.09968046 -0.24338198 0.13521498 0.09842629 0.6743148 0.65340227
0.44964984 0.07288327 0.006624301 -0.065188944 0.35088587 0.65463895 0.5977579 0.58497816
-0.2915971 -0.16993222 -0.058837917 -0.39789242 -0.044401597 0.14070077 0.122019686 0.079679266
0.10484092 -0.08400192 -0.19448893 0.13383362 0.28267226 0.01751265 -0.24670172 -0.4827373
-0.38222998 0.020815508 0.06216976 -0.21572205 -0.13292462 -0.27109852 -0.17933898 -0.24485199
-0.5292489 0.19060789 -0.118500866 0.05304548 -0.12529495 -0.4309496 -0.2439521 -0.4894752
-0.036904007 -0.2747822 -0.2117851 -0.1017984 -0.40206409 -0.28161147 -0.036441006 -0.019564912
-0.08260715 -0.1361928 -0.1871717 -0.0012349114 -0.3294939 0.18503551 -0.31960267 -0.43534106
-0.41840824 -0.3595247 0.4467971 0.26729947 -0.0333109 -0.090396374 -0.1103059 0.21431936
0.09217553 0.25374264 0.28688255 0.23152937 -0.376415 -0.19005269 0.114020996 0.40459794
0.16728823 0.0847887 -0.313678 -0.7950201 -0.82456857 -0.3812694 0.5930199 0.26828283
-0.071742035 -0.29046202 -0.41801268 0.4125026 -0.019489171 -0.3669375 -0.3909552 -0.094293445
-0.20703255 -0.45497298 -0.46003455 -0.0787327 0.34229898 0.35284263 0.34518826 -0.3100704
-0.75625056 -0.09110226 0.04947268 0.39749166 0.36873156 -0.020104462 -0.5560415 0.21985681
0.30340433 0.14788751 0.18167622 -0.38283935 -0.04647566 0.105633564 0.3614104 -0.13823041
-0.38962397 0.15880205 0.36389413 0.28903 -0.026443103 0.11095335 -0.37050736 -0.06167427
0.3360517 0.22058906 0.043641265 -0.23037243 -0.33960474 -0.16711093 0.27589574 0.26539811
-0.20478673 -0.2963245 -0.3478172 0.07227632 0.11703448 -0.14806175 -0.4815857 -0.39475986
-0.10529526 0.029362706 0.25334743 0.4511632 0.58044493 0.49971145 0.32279086 -0.2628288
00000000: 67cd 363d 89b8 503e d6cd 9c3d 9e61 e3bd
00000010: b4a6 65be f477 a23d 624c 8f3d 1878 a83d
00000020: 4f4a 18be 625a 05bf c8fd 283e 3bfc a8be
00000030: ac5b 3a3e 5e9b e0be b5b1 c4be 5091 51be
00000040: b0b1 09bf fef5 b33e 6f77 06bf 85fb 9ebe
00000050: dd1f 1ebe 56c3 6a3e 8386 143f f136 60be
00000060: 051b 4cbe e26e 7a3c 61a6 66be 9e07 6cbc
00000070: 955f 1a3e 0687 52be 79e6 1abd 7faf fcbd
00000080: 6d25 7fbe 0b05 efbb 1b78 fa3d 44f9 253e
00000090: b8d0 dc3d 625f 88bd 65e8 043e ef45 aa3e
000000a0: 2779 713e 91fc 0b3e bf85 2dbe 52c8 4f3e
000000b0: cd73 113f 1323 413e 8930 8fbe 28c0 97be
000000c0: c2c0 363e c509 c43d 6ca2 833e 0180 34bb
000000d0: 4945 dfbd a93c 14bf 54d2 05bf a840 a3bc
000000e0: 7760 d83d 9950 6cbe fd96 00bf f294 0ebf
000000f0: fd3d 61be ab47 da3d a27a cdbe eaeb 09bf
00000100: 5074 75be 6b5e 97be f98d 6fbe 05aa 35bf
00000110: 007e fbbe dc78 18bd 5b24 b0be 9458 cbbe
00000120: da84 fbbe 02a4 62bc 46fe f23d 235f a53e
00000130: 75d8 8a3d 0658 29bd 0810 313e 86f5 b23e
00000140: 12a2 c13e 0aec aa3d 2772 9b3c 03a1 c1bc
00000150: 4c2d 123f 4b16 8b3e 7010 c43d 8def 333e
00000160: a1de ffba 38c1 483f 0fd8 c33e 8473 f03d
00000170: 8ce7 043e fd2f 8d3e 085e 033f 39be 2e3f
00000180: 6da9 6a3e f22a 02be 8ee9 033d b8e6 44bd
00000190: 2add bb3d 17b3 9a3e ea1b 8d3d 3f0e cf3d
000001a0: e3fd d6bd 23d2 823e 4525 cc3d 2039 79be
000001b0: cc75 0a3e b993 c93d e59f 2c3f 5f45 273f
000001c0: 8138 e63e d343 953d aa10 d93b c881 85bd
000001d0: 50a7 b33e 6b96 273f a906 193f 21c1 153f
000001e0: 374c 95be b602 2ebe 0700 71bd 8eb8 cbbe
000001f0: 73de 35bd dd13 103e 75e5 f93d e22e a33d
00000200: d6b6 d63d 3309 acbd 1b28 47be ae0b 093e
00000210: 6bba 903e b076 8f3c 609f 7cbe 5829 f7be
00000220: a6b3 c3be 4985 aa3c b8a5 7e3d 3ee6 5cbe
00000230: 641d 08be 6dcd 8abe a3a4 37be 7bba 7abe
00000240: db7c 07bf b72e 433e 95b0 f2bd 3846 593d
00000250: 524d 00be 6da5 dcbe 94ce 79be 7e9c fabe
00000260: a828 17bd 41b0 8cbe 31de 58be ae7b d0bd
00000270: 58db cdbe 612f 90be 2a43 15bd 9846 a0bc
00000280: f02d a9bd 2076 0bbe f0a9 3fbe c0dc a1ba
00000290: 6db3 a8be f379 3d3e f6a2 a3be 06e5 debe
000002a0: 9b39 d6be 9f13 b8be 97c2 e43e 7adb 883e
000002b0: 0371 08bd bc21 b9bd 0fe8 e1bd 8976 5b3e
000002c0: 86c6 bc3d 8eea 813e 45e2 923e 0916 6d3e
000002d0: 78b9 c0be 2c9d 42be d783 e93d 7627 cf3e
000002e0: 9b4d 2b3e b3a5 ad3d 679a a0be 7086 4bbf
000002f0: ed16 53bf be35 c3be 27d0 173f 5e5c 893e
00000300: 7ded 92bd 70b7 94be c205 d6be 8a33 d33e
00000310: c1a7 9fbc 3bdf bbbe 482b c8be ec1c c1bd
00000320: 5700 54be 38f2 e8be a689 ebbe 9c3e a1bd
00000330: d041 af3e caa7 b43e 84bc b03e 8cc1 9ebe
00000340: a399 41bf d293 babd dda3 4a3d 0784 cb3e
00000350: 62ca bc3e 1db2 a4bc bc58 0ebf 2522 613e
00000360: d057 9b3e d36f 173e 5509 3a3e 8503 c4be
00000370: 435d 3ebd 6956 d83d c90a b93e 468c 0dbe
00000380: cb7c c7be 019d 223e 5550 ba3e bdfb 933e
00000390: 359f d8bc 833b e33d 24b3 bdbe 299e 7cbd
000003a0: f80e ac3e 19e2 613e 2fc1 323d c0e6 6bbe
000003b0: ace0 adbe 211f 2bbe 3542 8d3e 43e2 873e
000003c0: 9db3 51be d8b7 97be 1915 b2be 9b05 943d
000003d0: c6af ef3d 809d 17be 6792 f6be f71d cabe
000003e0: 0ba5 d7bd 0f8a f03c c1b6 813e ddfe e63e
000003f0: 0a98 143f 2eda ff3e d844 a53e 7f91 86be

bias f4 [12]
-0.24272959 -0.0110094305 0.34194523 0.11051542 0.53808564 0.16770701 0.04352624 -0.10005341
-0.12268301 0.037803072 -0.04576368 -0.056086805
00000000: 1b8e 78be e660 34bc 7213 af3e e955 e23d
00000010: fbbf 093f 63bb 2b3e 9248 323d cde8 ccbd
00000020: 3b41 fbbd 65d7 1a3d b272 3bbd 47bb 65bd

weight f4 [10, 192]
-0.003875438 0.08822116 -0.15406993 -0.32591093 0.17832261 0.55421114 0.2378411 0.44679618
0.6535781 0.30957738 0.25372997 0.43062842 0.28015026 -0.7094786 -0.5613821 0.2610465
0.12661913 0.19811921 -0.010679162 0.10924295 -0.29815575 0.15054041 -0.113491714 -0.48786786
-0.15053727 -0.01321985 0.2509258 -0.17035933 0.010817258 0.33753997 0.5797641 -0.22656351
-0.2342545 0.33027682 0.30340752 0.26120606 -0.10777693 -0.17643172 -0.1399113 0.09051765
-0.27609828 -0.2229143 0.40127546 0.42580113 -0.4050742 -0.13607386 0.020528054 0.45900145
-0.1702305 0.20484315 -0.11395527 -0.43067896 0.16919711 0.2644415 -0.21758682 -0.37127745
0.2842486 -0.554579 -0.25315404 0.009665144 0.25452724 0.14072192 -0.061135337 0.23023121
0.12179256 -0.048069213 0.07666385 0.3681972 0.103875026 -0.5654429 -0.10870229 -0.2488282
0.19932097 -0.12532713 -0.1903027 -0.23162854 0.32646787 0.4659438 -0.34636143 -0.6926859
-0.13922708 -0.22747543 -0.06259967 -0.11457106 -0.44238922 -0.16227566 -0.17283124 0.5532439
-0.8639297 -0.83412766 0.29643396 0.6145986 -0.5797074 -1.0978599 0.081379876 0.087396726
-0.3559838 0.15340021 -0.0990727 -0.70601344 -0.16061783 -0.100867316 -0.5336855 -0.80728567
-0.29378006 0.023448262 -0.49333134 0.40070212 -0.073128566 -0.20896247 -0.066553906 0.5663967
0.09245494 0.1512035 0.04159764 0.124965735 0.16345152 0.121959 -0.33481675 0.033445973
0.46392527 0.11509888 -0.4024997 -0.078119926 0.25283787 0.45025972 0.17238371 -0.48616633
-0.09242144 0.09522877 -0.03847749 -0.14376397 0.4699886 0.30195948 0.11626492 0.10838744
0.12693262 -0.46428806 -0.16766025 -0.15120909 0.34766802 -0.5588591 -0.20910512 0.2604154
0.45914587 0.034975532 -0.26040515 -0.34585902 0.3263304 -0.0953914 -0.27160868 -0.12083083
-0.42810208 0.22609144 0.83158076 -0.15566379 -0.16484155 0.022893323 0.5460522 -0.083857074
-0.20926356 -0.022033881 0.0063199946 0.30020878 -0.11486067 -0.6165056 -0.21492971 0.16075334
-0.12626952 -0.9891849 -0.2477117 -0.027808215 0.27552575 -0.0059790057 0.4282152 -0.03309693
0.21512027 0.30230296 0.23458713 -0.03154479 0.081123084 0.07119848 -0.028198084 0.25177252
-0.6760971 -0.29394692 -0.2429443 -0.107042655 -0.52635026 -0.63737786 -0.26861235 -0.008259004
0.17232539 0.21794392 0.88862646 0.3335237 0.24752825 0.57915455 0.48436955 0.27930376
-0.06167039 0.39648682 0.10742967 -0.19947125 -0.18021446 0.15633136 -0.07549127 -0.69529843
0.24858391 0.16381021 -0.3638496 0.2852447 0.071315736 -0.3206707 -0.48030272 0.056703296
0.19431931 0.009001459 0.26328278 -0.11877636 0.13816781 0.16473146 -0.30614883 0.12707978
0.38351098 0.57871735 0.48940465 0.07363983 0.12552488 0.61884147 0.39514497 0.27910474
0.28875598 0.8170884 0.40887132 0.19159827 -0.26770452 -0.074068785 -0.24677107 -0.14570673
0.29864743 -0.27571195 -0.103566416 0.102522805 0.0073451237 0.026920836 0.20633994 0.10629027
0.31951466 0.58560073 0.14679655 0.060661018 0.17070562 0.6673072 -0.26392037 0.116088755
00000000: 0ffb 7dbb 4cad b43d 82c4 1dbe ccdd a6be
00000010: 349a 363e c8e0 0d3f 9e8c 733e 78c2 e43e
00000020: e550 273f ed80 9e3e e5e8 813e 547b dc3e
00000030: db6f 8f3e 64a0 35bf bdb6 0fbf e3a7 853e
00000040: 72a8 013e c3df 4a3e a7f7 2ebc c5ba df3d
00000050: dfa7 98be 4427 1a3e 586e e8bd d1c9 f9be
00000060: 7126 1abe 1298 58bc 5979 803e ad72 2ebe
00000070: de3a 313c 0ad2 ac3e 6c6b 143f 4400 68be
00000080: 69e0 6fbe 0b1a a93e 3b58 9b3e cdbc 853e
00000090: 27ba dcbd 84aa 34be e844 0fbe 5161 b93d
000000a0: c15c 8dbe a543 64be fa73 cd3e 9b02 da3e
000000b0: e365 cfbe f256 0bbe 732a a83c 3d02 eb3e
000000c0: e750 2ebe 67c2 513e 6161 e9bd f481 dcbe
000000d0: 0242 2d3e e064 873e 14cf 5ebe 1418 bebe
000000e0: 0889 913e e4f8 0dbf 689d 81be 8d5a 1e3c
000000f0: 6551 823e 6819 103e 0c69 7abd bbc1 6b3e
00000100: 616e f93d 39e4 44bd f001 9d3d 5884 bc3e
00000110: 6ebc d43d dec0 10bf 4e9f debd d2cc 7ebe
00000120: cc1a 4c3e c155 00be b6de 42be 0830 6dbe
00000130: cc26 a73e 3090 ee3e 4956 b1be dd53 31bf
00000140: 8b91 0ebe 52ef 68be 4134 80bd 3ba4 eabd
00000150: d780 e2be 972b 26be acfa 30be 64a1 0d3f
00000160: 7f2a 5dbf 6489 55bf 31c6 973e 5556 1d3f
00000170: b467 14bf ac86 8cbf 7eaa a63d 0efd b23d
00000180: 8243 b6be f214 1d3e a1e6 cabd 4cbd 34bf
00000190: 0079 24be 8693 cebd 9d9f 08bf 46aa 4ebf
000001a0: 576a 96be 9216 c03c ed95 fcbe d428 cd3e
000001b0: 6ec4 95bd 42fa 55be 6a4d 88bd 60ff 103f
000001c0: 0459 bd3d 17d5 1a3e 4962 2a3d 09ee ff3d
000001d0: d65f 273e a4c5 f93d 1a6d abbe a5fe 083d
000001e0: 9d87 ed3e f6b8 eb3d 7114 cebe 57fd 9fbd
000001f0: f773 813e 7188 e63e 5b85 303e cbea f8be
00000200: 7447 bdbd 4d07 c33d 939a 1dbd dd36 13be
00000210: 59a2 f03e 6f9a 9a3e 4d1c ee3d 3cfa dd3d
00000220: a0fa 013e 2ab7 edbe 21af 2bbe 8ed6 1abe
00000230: 8b01 b23e 6411 0fbf a71f 56be 2b55 853e
00000240: 2b15 eb3e 8142 0f3d d353 85be 6f14 b1be
00000250: c714 a73e 915c c3bd 4b10 8bbe 2776 f7bd
00000260: 3230 dbbe 8484 673e 7ae2 543f 5466 1fbe
00000270: 39cc 28be c78a bb3c 14ca 0b3f 42bd abbd
00000280: 3049 56be 6680 b4bc f517 cf3b f7b4 993e
00000290: 123c ebbd 50d3 1dbf 8916 5cbe 869c 243e
000002a0: cc4c 01be 393b 7dbf 23a8 7dbe 0ece e3bc
000002b0: b611 8d3e 89eb c3bb 063f db3e a590 07bd
000002c0: 7d48 5c3e 74c7 9a3e 9c37 703e 1c35 01bd
000002d0: dc23 a63d 82d0 913d abff e6bc 54e8 803e
000002e0: b314 2dbf 3680 96be 64c6 78be 2e39 dbbd
000002f0: e4be 06bf 322b 23bf 8f87 89be c650 07bc
00000300: 1176 303e b12c 5f3e 067d 633f 9ec3 aa3e
00000310: 0c78 7d3e 7943 143f 49ff f73e e700 8f3e
00000320: 179a 7cbd 5200 cb3e 1604 dc3d 3142 4cbe
00000330: 248a 38be 5415 203e 2b9b 9abd 14ff 31bf
00000340: c88c 7e3e ddbd 273e 7f4a babe 980b 923e
00000350: fc0d 923d f32e a4be 3dea f5be b741 683d
00000360: a4fb 463e db7a 133c 00cd 863e 0541 f3bd
00000370: dd7b 0d3e 5daf 283e 8abf 9cbe 3421 023e
00000380: 8d5b c43e d226 143f 3f93 fa3e 7bd0 963d
00000390: 9889 003e 656c 1e3f 7150 ca3e d1e6 8e3e
000003a0: d3d7 933e b52c 513f 9557 d13e 5632 443e
000003b0: 9110 89be 60b1 97bd 8eb1 7cbe 2534 15be
000003c0: 51e8 983e 1e2a 8dbe a11a d4bd 7af7 d13d
000003d0: 5daf f03b 1689 dc3c c74a 533e b7ae d93d
000003e0: 6d97 a33e eee9 153f d651 163e b077 783d
000003f0: 74cd 2e3e a5d4 2a3f 9220 87be f1bf ed3d

bias f4 [10]
-0.37031496 0.17746615 0.33415562 -0.030153237 -0.08776727 0.40456372 -0.37552643 0.26150802
-0.40206915 -0.16565533
00000000: ec99 bdbe b0b9 353e 7216 ab3e ec03 f7bc
00000010: 54bf b3bd fa22 cf3e 0045 c0be 61e4 853e
00000020: 02dc cdbe 8da1 29be
