Experiments/LeNet1_single_tanh.pt (torch, 16997 bytes, 6 tensors)

weight f4 [4, 1, 5, 5]
0	0x3c85af28	0.016318873
1	0x3f878d58	1.059001
2	0x3f663c63	0.8993589
3	0x3e826c38	0.2547319
4	0xbbe07e16	-0.006850968
5	0x3c5f2a3b	0.013620908
6	0x3f8270f2	1.0190718
7	0x3e1ae503	0.15126424
8	0x3d1b625b	0.037935596
9	0xbdc6e260	-0.09711146
10	0x3ef6cd00	0.48203278
11	0x3f3a8523	0.728594
12	0x3d3aadf4	0.04557605
13	0xbe915a24	-0.28389084
14	0xbe2f3a5c	-0.17112106
15	0x3f571ea8	0.8403115
16	0x3ee600be	0.4492244
17	0xbe503010	-0.20330834
18	0xbe4b8365	-0.19874342
19	0xbe23c815	-0.15994294
20	0x3f8a10bd	1.0786358
21	0x3e749abc	0.23887151
22	0x3db64e52	0.08901657
23	0xbe8bbbb4	-0.27291644
24	0xbe49bd6d	-0.19701166
25	0xbddea467	-0.10871201
26	0xbe567101	-0.20941545
27	0xbed60024	-0.41796982
28	0xbe2213c5	-0.15827854
29	0x3ea90590	0.33012056
30	0xbd521d04	-0.051297203
31	0xbef63c98	-0.48093104
32	0xbebba8a0	-0.36652088
33	0x3e07a5a0	0.13246775
34	0x3f37b137	0.71754783
35	0x3d7adeb1	0.06124753
36	0xbeb2e392	-0.34939247
37	0x3e576ed4	0.21038371
38	0x3ee4f432	0.44717556
39	0x3ed8ae80	0.42320633
40	0x3e4163e7	0.18885766
41	0x3e9f8c42	0.31161696
42	0x3ebfaf1d	0.37438288
43	0x3e912bcc	0.28353727
44	0xbda05a90	-0.078297734
45	0x3eb015e4	0.343917
46	0x3f222bf5	0.63348323
47	0x3e26d580	0.16292381
48	0xbe1c8340	-0.15284443
49	0xbede88f4	-0.43463862
50	0xbd2a299d	-0.04154359
51	0x3f12c98d	0.5733879
52	0x3f29e5a4	0.6636603
53	0x3eeba236	0.46022195
54	0x3e10faf9	0.14158238
55	0x3e4dda49	0.201028
56	0x3f187cc6	0.5956539
57	0x3ed6f007	0.4198
58	0xbc254f8c	-0.010089766
59	0xbea3018c	-0.31837118
60	0x3e78fd25	0.24315317
61	0x3ee3f18d	0.44520226
62	0x3e44d42d	0.19221564
63	0xbe889e46	-0.26683253
64	0xbe98a57a	-0.2981375
65	0xbb92e478	-0.004482802
66	0xbcc7fa66	-0.024411391
67	0xbe3ab484	-0.18232924
68	0xbeb1b3cd	-0.3470749
69	0xbe7316fe	-0.2373924
70	0xbf04fa09	-0.51944023
71	0xbf081fc0	-0.53173447
72	0xbf158548	-0.58406496
73	0xbdde2a0e	-0.10847865
74	0xbe1037bb	-0.1408376
75	0xbe29f6dd	-0.16598077
76	0x3dfd709d	0.12374995
77	0x3efbd5d1	0.49186566
78	0x3d698e81	0.057020668
79	0xbe02c3f0	-0.12770057
80	0xbf983f21	-1.1894265
81	0xbfa672e7	-1.3003815
82	0xbf9874c5	-1.1910635
83	0xbf9e884e	-1.2385347
84	0xbf9f4900	-1.2444153
85	0xbe23c68f	-0.15993713
86	0xbe94a7be	-0.29034227
87	0xbf36b1b0	-0.7136488
88	0xbf1286e5	-0.5723708
89	0xbf043f6b	-0.5165927
90	0x3e282322	0.16419652
91	0x3cad297e	0.02113795
92	0x3d35b8f4	0.04436584
93	0x3da1e3e3	0.07904794
94	0x3dd632e8	0.10458928
95	0x3e70e3a7	0.23524342
96	0x3e89d21a	0.26918107
97	0x3dd3f92c	0.1035026
98	0x3ef7fdbd	0.48435774
99	0x3f221d1c	0.6332567

bias f4 [4]
0	0xbe373e23	-0.17894797
1	0x3b6423fd	0.003481149
2	0xbce37e63	-0.027770227
3	0x3e4ff6dc	0.20309013

weight f4 [12, 4, 5, 5]
0	0xbe47e8f5	-0.1952246
1	0x3d76d516	0.06026181
2	0x3e244c2e	0.16044685
3	0x3d86aac3	0.06575539
4	0xbe838cb2	-0.2569328
5	0x3da160e8	0.078798115
6	0x3ecf28ec	0.40460908
7	0x3f3ccb6f	0.73747915
8	0x3ea5b99a	0.32368165
9	0xbe7de609	-0.24794783
10	0x3e096fe8	0.13421595
11	0x3f0e6b6d	0.5563267
12	0x3eef8d11	0.46787313
13	0xbd9148ba	-0.070939496
14	0xbebd81ab	-0.3701299
15	0x3e48fe13	0.19628172
16	0x3e545634	0.20736009
17	0x3d49628a	0.04916624
18	0xbeb18203	-0.34669504
19	0xbef12a4f	-0.4710259
20	0x3e6e8af6	0.23295197
21	0x3e7b57df	0.24545239
22	0x3e053608	0.13008893
23	0xbf1dc082	-0.6162187
24	0xbf05c8c4	-0.5225947
25	0x3e03bb12	0.1286433
26	0xbd7f9a13	-0.062402796
27	0xbe8ab536	-0.27091378
28	0x3d9b4595	0.07581631
29	0x3d96f0c3	0.073701404
30	0x3d67ae9b	0.056563
31	0xbe4a9ef8	-0.19787204
32	0xbe68c882	-0.22732738
33	0xbd5db508	-0.054127723
34	0x3df2fc31	0.11864508
35	0xbeeecc56	-0.4664027
36	0xbec92f88	-0.39294076
37	0xbd837c18	-0.064201534
38	0x3dc26212	0.09491362
39	0x3e781ed0	0.24230504
40	0xbebf1d1e	-0.37326902
41	0xbf1bc731	-0.60850817
42	0xbe819c28	-0.2531445
43	0xbd2619a8	-0.04055181
44	0x3ea5f37a	0.3241232
45	0xbedef0d1	-0.43543103
46	0xbf027768	-0.5096345
47	0xbeafa3d1	-0.3430467
48	0xbdeeb58c	-0.11655721
49	0x3e0db938	0.13840187
50	0x3e0398dd	0.12851281
51	0xbcdce102	-0.02696276
52	0xbd4dbdc0	-0.050229788
53	0xbe0dd654	-0.13851291
54	0xbd79417e	-0.060853474
55	0xbe58a2e8	-0.21155894
56	0x3d3c581f	0.045982476
57	0x3e0cbc21	0.1374364
58	0xbc9f0baa	-0.019414742
59	0xbe103b1f	-0.14085053
60	0xbe85a94e	-0.26105732
61	0xbdc50cb9	-0.09621567
62	0x3db375d5	0.08762709
63	0x3c207990	0.009794608
64	0x3d5ee5e2	0.054418452
65	0xbe60c0c2	-0.21948531
66	0xbe8b96ae	-0.27263397
67	0xbe137d96	-0.14403376
68	0x3d89946f	0.067177646
69	0x3e8001bd	0.25001326
70	0xbeda5009	-0.42639187
71	0xbed669fb	-0.41877732
72	0xbe0f0218	-0.13965642
73	0x3dad5528	0.08463508
74	0x3dbc6733	0.09199371
75	0xbe122506	-0.14271936
76	0xbdb93bd2	-0.09044613
77	0x3df2a33c	0.11847541
78	0x3e279681	0.16366006
79	0xbdf43956	-0.119249985
80	0x3e77ea58	0.24210489
81	0x3e4541b0	0.19263339
82	0x3e459dbf	0.19298457
83	0x3e4bf103	0.19916157
84	0xbd8c99bc	-0.0686526
85	0x3f085d2f	0.53267187
86	0x3e84ca5f	0.25935647
87	0x3da17ad9	0.078847595
88	0xbdb2c3d7	-0.0872876
89	0xbe252f9c	-0.16131443
90	0x3ee6c879	0.45074823
91	0x3d3d6148	0.046235353
92	0xbeca9bad	-0.39571896
93	0xbf1e4471	-0.61823183
94	0xbf2e1e9f	-0.68015474
95	0xbd19dfda	-0.037566997
96	0xbe9fdb23	-0.31221876
97	0xbeb29e12	-0.34886223
98	0xbea9ec0c	-0.33187902
99	0xbf057606	-0.52133214
100	0x3d69626e	0.056978635
101	0x3c28c40c	0.0103006475
102	0x3e081441	0.13288976
103	0x3d9ea1a6	0.07745676
104	0xbe16cc53	-0.14726381
105	0x3e5a718b	0.21332376
106	0x3e88ff24	0.26757157
107	0x3d46dcb7	0.048550334
108	0x3d649aa9	0.055811558
109	0xbdf00bd6	-0.117210075
110	0x3e92aa9f	0.286458
111	0x3e854b2a	0.26033908
112	0xbd22dd79	-0.039761994
113	0xbda8cf22	-0.082426324
114	0xbdf5acd8	-0.11995858
115	0x3e1b2b70	0.15153289
116	0x3db604e7	0.08887654
117	0xbe78917c	-0.24274248
118	0xbe4c0481	-0.19923593
119	0xbe2521f9	-0.16126241
120	0x3db4f35d	0.0883548
121	0x3dbbb4b9	0.091653295
122	0xbe6aff6b	-0.22948997
123	0xbe8a6101	-0.27027133
124	0xbd80472e	-0.062635764
125	0x3e4d2780	0.200346
126	0x3ea94db5	0.33067098
127	0x3eade723	0.33965406
128	0x3e807081	0.25085834
129	0x3da26119	0.07928676
130	0x3e252dad	0.16130705
131	0x3e09e33b	0.13465588
132	0x3e1b2e5e	0.15154406
133	0x3e0d4355	0.13795216
134	0x3dc03342	0.09384777
135	0x3c460e68	0.012088396
136	0x3cdad5c0	0.026713252
137	0x3dbfdbc2	0.09368087
138	0x3e3ecb10	0.1863215
139	0x3d731c69	0.059353266
140	0x3e046d6b	0.12932365
141	0x3dde50ae	0.10855232
142	0x3dccfdc1	0.10009337
143	0x3d370d9f	0.044690724
144	0x3e02c6d5	0.12771161
145	0x3e53b859	0.20675792
146	0x3cbb8327	0.022889687
147	0x3d5ec3fe	0.05438613
148	0x3ca720cf	0.020401387
149	0x3e608a42	0.21927741
150	0xbe22d6ab	-0.15902202
151	0xbeb5d79c	-0.3551606
152	0xbf00f640	-0.5037575
153	0xbeb9632a	-0.3620847
154	0xbdfa56b2	-0.12223567
155	0xbe6d9921	-0.23202945
156	0xbf121b40	-0.5707283
157	0xbed093fd	-0.40737906
158	0xbe886e5e	-0.26646703
159	0xbe8dd4aa	-0.27701312
160	0xbe3bf4a2	-0.18355039
161	0xbecae302	-0.39626318
162	0xbe286602	-0.16445163
163	0xbe2153f1	-0.15754677
164	0xbdb448dd	-0.0880296
165	0xbea053e8	-0.31314015
166	0xbeb472e5	-0.35243908
167	0xbec55e32	-0.38548428
168	0x3c9c66db	0.019092014
169	0x3e82fb6f	0.25582454
170	0xbc87365a	-0.016505409
171	0xbe5d9896	-0.21640238
172	0xbeb26592	-0.34843117
173	0x3d72704a	0.05918912
174	0x3e26a369	0.16273274
175	0x3e66ef91	0.22552325
176	0x3d902a25	0.070392884
177	0x3bce0640	0.006287366
178	0x3dce58d8	0.10075539
179	0x3e923f4a	0.2856391
180	0x3e3148e6	0.17312965
181	0x3c418d4c	0.011813473
182	0x3e1e71fb	0.15473168
183	0x3dd20ff1	0.10256947
184	0x3ebd3001	0.36950687
185	0x3e028847	0.12747298
186	0x3e9d287e	0.30694956
187	0x3e4f0b35	0.20219119
188	0x3e16b3ba	0.14716998
189	0x3d7871df	0.06065547
190	0x3e7c19f8	0.24619281
191	0x3eeb22fb	0.45925125
192	0x3ed43722	0.41448313
193	0x3e1475a4	0.14498001
194	0xbbd4087f	-0.0064707394
195	0xbd98af06	-0.07455258
196	0x3db7b442	0.08969928
197	0x3e389596	0.18025813
198	0x3e2d05a0	0.16896677
199	0x3e2e18e8	0.17001688
200	0x3e344032	0.17602614
201	0x3d54327e	0.051805966
202	0x3d9273ea	0.07151015
203	0x3d819f15	0.063291706
204	0xbe15fac0	-0.14646435
205	0x3e33e5d3	0.1756814
206	0x3d22d31e	0.03975212
207	0xbd75a9c3	-0.05997635
208	0x3d3792ce	0.04481774
209	0xbea7ba29	-0.32759216
210	0x3e70a8c6	0.23501882
211	0x3e1ff836	0.15622029
212	0x3e1ad1c8	0.15119088
213	0x3e0bab65	0.136396
214	0xbe812539	-0.2522371
215	0x3ea26c65	0.31723323
216	0x3e938efa	0.2882002
217	0x3e3c795f	0.18405674
218	0xbd53add6	-0.051679455
219	0x3c454476	0.012040248
220	0x3e317ae1	0.17332031
221	0x3e7e0324	0.24805886
222	0xbd37b548	-0.044850618
223	0xbda534e0	-0.08066726
224	0x3d508634	0.050909236
225	0xbe185404	-0.148758
226	0xbe83e3dd	-0.25759783
227	0xbe83d8b4	-0.2575127
228	0xbeb3e1e1	-0.3513327
229	0xbdd54df6	-0.104152605
230	0xbe8d0d81	-0.27549365
231	0xbe3985b9	-0.18117417
232	0xbe967dea	-0.2939294
233	0xbead3cc3	-0.3383542
234	0xbe4fed5f	-0.20305394
235	0xbe89f6ec	-0.269462
236	0xbe207e48	-0.15673172
237	0x3c8f312c	0.017479502
238	0x3e1a847a	0.15089598
239	0xbd9cdfa9	-0.07659847
240	0xbe905d3b	-0.2819613
241	0xbe093dc3	-0.13402466
242	0x3e5f95ae	0.21834442
243	0x3e47a360	0.19495916
244	0x3df9ef92	0.122038975
245	0xbe0a0746	-0.13479337
246	0xbd9fa87a	-0.07795806
247	0xbd6e2047	-0.05813625
248	0x3e7989d8	0.2436899
249	0x3f13b552	0.5769855
250	0x3eb51a61	0.35371688
251	0x3d6dd910	0.058068335
252	0x3ce95e8c	0.028487466
253	0x3e0335fd	0.12813564
254	0xbe1bb233	-0.15204696
255	0xbc64443e	-0.013932286

bias f4 [12]
0	0xbe04a6eb	-0.12954299
1	0x3ec2e5ca	0.3806594
2	0xbeb7d8ae	-0.359075
3	0xbe8fd771	-0.28094056
4	0xbe063aef	-0.13108419
5	0x3e035094	0.12823707
6	0xbe89e863	-0.2693511
7	0xbe3bf76b	-0.18356101
8	0xbd183893	-0.03716333
9	0x3e80ba54	0.25142157
10	0x3d183b02	0.03716565
11	0x3e2df887	0.16989337

weight f4 [10, 192]
0	0xbbe6c081	-0.007041991
1	0xbc0c4ac0	-0.008562744
2	0xbdb019bc	-0.085986584
3	0x3ccaf291	0.024773868
4	0x3d87c84c	0.066300005
5	0x3d89f710	0.067365766
6	0x3c8b083d	0.016971702
7	0xbc87bc40	-0.016569257
8	0x3e2fc345	0.17164333
9	0xbe5ba852	-0.21450928
10	0x3e681cef	0.22667287
11	0x3ebc8ae6	0.3682472
12	0x3def2477	0.11676877
13	0xbed32ddb	-0.41245922
14	0xbdf449c7	-0.119281344
15	0x3e38be2a	0.18041292
16	0x3da802af	0.08203637
17	0xbc4401f6	-0.011963358
18	0xbd2ee02b	-0.042694252
19	0x3e2f5cde	0.1712527
20	0xbcb24dee	-0.021765675
21	0xbe06bd2e	-0.13158104
22	0x3cf2498a	0.029576082
23	0xbdc6f993	-0.09715571
24	0xbe9d43e1	-0.3071585
25	0xbe679382	-0.22614864
26	0xbd29e6fb	-0.041480046
27	0xb93e46bc	-0.00018146163
28	0xbe92f8cd	-0.28705445
29	0xbdc6c073	-0.097046755
30	0x3e84213d	0.2580661
31	0x3da194ff	0.07889747
32	0xbe0f0414	-0.139664
33	0x3d555f49	0.052092824
34	0x3dae9e16	0.08526246
35	0x3e1a455f	0.15065525
36	0x3d0db1aa	0.03459326
37	0xbd6bed27	-0.057599213
38	0xbc218d61	-0.0098603675
39	0xbd62972e	-0.055319957
40	0x3ea100b3	0.31445846
41	0x3e85ec4a	0.26156837
42	0x3ca5bbee	0.020231213
43	0xbf04d55d	-0.51888067
44	0xbd3ed206	-0.046587013
45	0x3db02ac0	0.08601904
46	0x3d9dd215	0.077060856
47	0xbebed8d4	-0.37274802
48	0xbdebc398	-0.11511916
49	0x3e53c215	0.20679505
50	0xbe01a341	-0.12659933
51	0x3e495955	0.19662984
52	0x3df8f60d	0.121563055
53	0x3e3e29f1	0.18570687
54	0xbdc61d75	-0.09673587
55	0xbec2e98a	-0.380688
56	0x3dea19b6	0.11430685
57	0x3c9bf702	0.019038681
58	0x3d3fac37	0.046795096
59	0xbea1d9e6	-0.31611556
60	0x3d8e4dc2	0.06948425
61	0x3e81589c	0.25262916
62	0x3d933af1	0.071889766
63	0xbe93c2fd	-0.28859702
64	0x3d61e86c	0.055153295
65	0xbce30c2d	-0.027715767
66	0x3c528bf2	0.012850748
67	0x3d58df8d	0.05294757
68	0x3be06fd5	0.006849269
69	0x3e04915a	0.12946072
70	0x3e0b1e8f	0.13585876
71	0x3ed0ecb8	0.40805602
72	0xbce1c00d	-0.027557397
73	0x3e7f62b1	0.24939992
74	0x3d9b9de9	0.07598478
75	0xbd9f5ad3	-0.07780995
76	0x3e1f9eb0	0.15587878
77	0xbe8a304c	-0.26989973
78	0xbd9c0984	-0.076190025
79	0x3c419858	0.011816107
80	0xbda15575	-0.07877628
81	0xbdc0ce47	-0.09414344
82	0xbe57786f	-0.21042036
83	0x3d9883a5	0.07446984
84	0x3c9ac529	0.018892841
85	0xbdd540aa	-0.10412724
86	0xbdb14674	-0.08656016
87	0x3e90cc54	0.2828089
88	0x3e9f0ca0	0.3106432
89	0x3e1cf94d	0.15329476
90	0x3e723a91	0.23655154
91	0x3e930c1c	0.28720176
92	0x3de28521	0.110605486
93	0x3d981016	0.07424943
94	0xbd3de49c	-0.046360597
95	0xbe533acf	-0.20627902
96	0xbe388d48	-0.18022645
97	0x3e710483	0.23536877
98	0x3e46766d	0.19381113
99	0xbdb8925b	-0.0901229
100	0x3ddcbb91	0.10777963
101	0xbca02747	-0.019549979
102	0x3d26f195	0.040757734
103	0x3e618a80	0.2202549
104	0x3e2998f9	0.1656226
105	0x3b24a90c	0.0025125174
106	0xbcd4349a	-0.025903989
107	0x3db6a436	0.089180395
108	0x3e986819	0.2976692
109	0x3c92d648	0.017924443
110	0xbeb6f371	-0.35732606
111	0xbd1fb889	-0.038994346
112	0xbd6dd515	-0.05806454
113	0xbe14b3c6	-0.14521703
114	0x3da09a72	0.07841958
115	0x3cc72c7a	0.0243132
116	0xbe8c3df5	-0.2739102
117	0xbe48134e	-0.19538614
118	0x3df67f26	0.120359704
119	0xbeeef7b2	-0.46673352
120	0xbec96668	-0.39335942
121	0x3dcc0ac7	0.09962993
122	0x3e055450	0.13020444
123	0xbe8a3568	-0.2699387
124	0xbea0dafd	-0.31417075
125	0x3eb7d421	0.3590403
126	0x3eebfa55	0.46089426
127	0x3b4eb967	0.0031543614
128	0x3d82fa73	0.06395426
129	0x3e23e72a	0.16006151
130	0x3d8eba3b	0.069691144
131	0x3ded5822	0.115890756
132	0xbc32bd4b	-0.010909389
133	0xbccc8632	-0.024966333
134	0xbd79bf78	-0.060973614
135	0xbf1dbc9b	-0.61615914
136	0x3e2dcc98	0.16972578
137	0xbe2c783c	-0.16842741
138	0xbeb982b8	-0.36232543
139	0x3d0e0af8	0.03467843
140	0x3e7c0d5e	0.24614474
141	0x3d6ae10c	0.057343528
142	0x3e0f8572	0.14015749
143	0x3e794b59	0.24345149
144	0x3d95cbf5	0.07314292
145	0x3edc84f9	0.430702
146	0xbd120abf	-0.03565478
147	0x3e142363	0.14466624
148	0x3d42e752	0.047583885
149	0xbe18dfc4	-0.1492911
150	0x3e3a072a	0.18166795
151	0x3e68e13c	0.2274217
152	0x3de55903	0.11198618
153	0xbe8fb178	-0.28065085
154	0xbd94cb8b	-0.07265385
155	0x3d39b168	0.045335203
156	0xbeadc3f9	-0.33938578
157	0xbef7508e	-0.48303646
158	0xbe821233	-0.2540451
159	0x3e21d452	0.1580365
160	0x3c017a5b	0.007902707
161	0xbbdab99e	-0.0066749593
162	0xbca29038	-0.01984416
163	0x3e71d223	0.23615317
164	0x3e3a4fd9	0.18194522
165	0x3e364c38	0.17802513
166	0xbdfa7d3c	-0.12230918
167	0xbd040e7e	-0.032240383
168	0x3e023ffc	0.1271972
169	0x3df6700d	0.12033091
170	0x3cf02423	0.029314106
171	0xbe1abb70	-0.15110564
172	0xbe064d9f	-0.13115548
173	0x3e13d7ff	0.14437865
174	0xbe735be8	-0.23765528
175	0xbeb7a8d3	-0.3587099
176	0xbd89479b	-0.06703111
177	0x3bde2842	0.0067797014
178	0xbcdce5e2	-0.026965085
179	0x3e38cf1e	0.18047759
180	0x3e2e3736	0.17013249
181	0x3e7cb492	0.24678257
182	0x3eb1aa42	0.3470021
183	0x3e7ab57f	0.24483298
184	0xbe323c54	-0.17405826
185	0x3e60c5c0	0.21950436
186	0x3e4f7026	0.20257625
187	0xbe86b098	-0.26306605
188	0xbe5dd3fb	-0.21662895
189	0xbe540116	-0.20703539
190	0xbe0402d5	-0.12891705
191	0xbe383e6b	-0.1799256
192	0x3d10aadd	0.035319198
193	0xbe4c2d14	-0.19939071
194	0xbe9e5b86	-0.30929202
195	0xbe9cbc10	-0.3061223
196	0xbdc1e313	-0.09467139
197	0x3eb3d0fe	0.35120386
198	0x3e62e07b	0.22155945
199	0x3b99a0be	0.0046883514
200	0xbdc944a7	-0.098275475
201	0x3e589ee8	0.21154368
202	0xbed0fade	-0.40816396
203	0xbedab12d	-0.427133
204	0xbd6b4a50	-0.057443917
205	0xbd21b3c8	-0.039478093
206	0xbe54a2ff	-0.20765303
207	0xbe81535a	-0.25258905
208	0x3e1b9596	0.15193781
209	0x3ea0d81e	0.31414884
210	0x3db85e09	0.09002311
211	0xbccc2d5c	-0.024923973
212	0x3e5fcba7	0.21855031
213	0x3ebcf801	0.36907962
214	0xbdb68a10	-0.08913052
215	0x3dc14ca5	0.09438447
216	0x3ea7effa	0.32800275
217	0x3e85354e	0.2601723
218	0xbe1bb590	-0.1520598
219	0x3caf23ed	0.021379435
220	0x3e140db2	0.1445835
221	0x3e06c1c9	0.1315986
222	0x3c1289c7	0.0089439815
223	0x3c9f2887	0.019428505
224	0xbe2e3619	-0.17012824
225	0x3df303e2	0.11865975
226	0xbe53d2f7	-0.20685945
227	0xbe23f501	-0.1601143
228	0xbdd7df0c	-0.1054059
229	0xbe2a832a	-0.16651598
230	0xbe3d5a27	-0.18491422
231	0xbcfe2a5d	-0.03102606
232	0xbe68cd47	-0.22734557
233	0xbd4da3bd	-0.05020498
234	0xbe662d16	-0.22478136
235	0xbc9d19e9	-0.019177394
236	0x3e05933f	0.13044451
237	0xbe76c2be	-0.24097726
238	0xbebc3595	-0.3675963
239	0x3d1a16fe	0.037619583
240	0xbd9f0ecf	-0.077664964
241	0xbe74bbd9	-0.23899783
242	0x3e9f1c83	0.3107644
243	0xbeba60f7	-0.36402103
244	0x3cf0360b	0.029322645
245	0xbdb5b6e9	-0.08872778
246	0x3e682309	0.22669615
247	0x3d0024a3	0.03128494
248	0xbd103a4a	-0.03521184
249	0xbdfbefe2	-0.123016134
250	0x3da138e9	0.07872183
251	0x3cd6e3e7	0.02623172
252	0x3c38b5b8	0.011273794
253	0x3c0b0448	0.008484907
254	0xbdf4201b	-0.11920186
255	0xbe76d94a	-0.24106327

bias f4 [10]
0	0x3b6608c8	0.003510045
1	0x3dbe1d84	0.092829734
2	0x3e8099b4	0.25117266
3	0xbd9fe62f	-0.07807576
4	0xbdb31039	-0.087433286
5	0x3e24b3d8	0.1608423
6	0xbe4fa260	-0.20276785
7	0x3d6ba104	0.057526603
8	0xbe1bd350	-0.15217328
9	0xbdb39fc4	-0.08770707
